node {
  name: "input_producer/Const"
  op: "Const"
  device: "/device:GPU:0"
  attr {
    key: "_output_shapes"
    value {
      list {
        shape {
          dim {
            size: 1
          }
        }
      }
    }
  }
  attr {
    key: "dtype"
    value {
      type: DT_STRING
    }
  }
  attr {
    key: "value"
    value {
      tensor {
        dtype: DT_STRING
        tensor_shape {
          dim {
            size: 1
          }
        }
        string_val: "tf-data/train/train.tfrecords"
      }
    }
  }
}
node {
  name: "input_producer/Size"
  op: "Const"
  device: "/device:GPU:0"
  attr {
    key: "_output_shapes"
    value {
      list {
        shape {
        }
      }
    }
  }
  attr {
    key: "dtype"
    value {
      type: DT_INT32
    }
  }
  attr {
    key: "value"
    value {
      tensor {
        dtype: DT_INT32
        tensor_shape {
        }
        int_val: 1
      }
    }
  }
}
node {
  name: "input_producer/Greater/y"
  op: "Const"
  device: "/device:GPU:0"
  attr {
    key: "_output_shapes"
    value {
      list {
        shape {
        }
      }
    }
  }
  attr {
    key: "dtype"
    value {
      type: DT_INT32
    }
  }
  attr {
    key: "value"
    value {
      tensor {
        dtype: DT_INT32
        tensor_shape {
        }
        int_val: 0
      }
    }
  }
}
node {
  name: "input_producer/Greater"
  op: "Greater"
  input: "input_producer/Size"
  input: "input_producer/Greater/y"
  device: "/device:GPU:0"
  attr {
    key: "T"
    value {
      type: DT_INT32
    }
  }
  attr {
    key: "_output_shapes"
    value {
      list {
        shape {
        }
      }
    }
  }
}
node {
  name: "input_producer/Assert/Const"
  op: "Const"
  device: "/device:GPU:0"
  attr {
    key: "_output_shapes"
    value {
      list {
        shape {
        }
      }
    }
  }
  attr {
    key: "dtype"
    value {
      type: DT_STRING
    }
  }
  attr {
    key: "value"
    value {
      tensor {
        dtype: DT_STRING
        tensor_shape {
        }
        string_val: "string_input_producer requires a non-null input tensor"
      }
    }
  }
}
node {
  name: "input_producer/Assert/Assert/data_0"
  op: "Const"
  device: "/device:GPU:0"
  attr {
    key: "_output_shapes"
    value {
      list {
        shape {
        }
      }
    }
  }
  attr {
    key: "dtype"
    value {
      type: DT_STRING
    }
  }
  attr {
    key: "value"
    value {
      tensor {
        dtype: DT_STRING
        tensor_shape {
        }
        string_val: "string_input_producer requires a non-null input tensor"
      }
    }
  }
}
node {
  name: "input_producer/Assert/Assert"
  op: "Assert"
  input: "input_producer/Greater"
  input: "input_producer/Assert/Assert/data_0"
  device: "/device:GPU:0"
  attr {
    key: "T"
    value {
      list {
        type: DT_STRING
      }
    }
  }
  attr {
    key: "summarize"
    value {
      i: 3
    }
  }
}
node {
  name: "input_producer/Identity"
  op: "Identity"
  input: "input_producer/Const"
  input: "^input_producer/Assert/Assert"
  device: "/device:GPU:0"
  attr {
    key: "T"
    value {
      type: DT_STRING
    }
  }
  attr {
    key: "_output_shapes"
    value {
      list {
        shape {
          dim {
            size: 1
          }
        }
      }
    }
  }
}
node {
  name: "input_producer/RandomShuffle"
  op: "RandomShuffle"
  input: "input_producer/Identity"
  device: "/device:GPU:0"
  attr {
    key: "T"
    value {
      type: DT_STRING
    }
  }
  attr {
    key: "_output_shapes"
    value {
      list {
        shape {
          dim {
            size: 1
          }
        }
      }
    }
  }
  attr {
    key: "seed"
    value {
      i: 0
    }
  }
  attr {
    key: "seed2"
    value {
      i: 0
    }
  }
}
node {
  name: "input_producer"
  op: "FIFOQueue"
  device: "/device:GPU:0"
  attr {
    key: "_output_shapes"
    value {
      list {
        shape {
          dim {
            size: 2
          }
        }
      }
    }
  }
  attr {
    key: "capacity"
    value {
      i: 32
    }
  }
  attr {
    key: "component_types"
    value {
      list {
        type: DT_STRING
      }
    }
  }
  attr {
    key: "container"
    value {
      s: ""
    }
  }
  attr {
    key: "shapes"
    value {
      list {
        shape {
        }
      }
    }
  }
  attr {
    key: "shared_name"
    value {
      s: ""
    }
  }
}
node {
  name: "input_producer/input_producer_EnqueueMany"
  op: "QueueEnqueueMany"
  input: "input_producer"
  input: "input_producer/RandomShuffle"
  device: "/device:GPU:0"
  attr {
    key: "Tcomponents"
    value {
      list {
        type: DT_STRING
      }
    }
  }
  attr {
    key: "_class"
    value {
      list {
        s: "loc:@input_producer"
      }
    }
  }
  attr {
    key: "timeout_ms"
    value {
      i: -1
    }
  }
}
node {
  name: "input_producer/input_producer_Close"
  op: "QueueClose"
  input: "input_producer"
  device: "/device:GPU:0"
  attr {
    key: "_class"
    value {
      list {
        s: "loc:@input_producer"
      }
    }
  }
  attr {
    key: "cancel_pending_enqueues"
    value {
      b: false
    }
  }
}
node {
  name: "input_producer/input_producer_Close_1"
  op: "QueueClose"
  input: "input_producer"
  device: "/device:GPU:0"
  attr {
    key: "_class"
    value {
      list {
        s: "loc:@input_producer"
      }
    }
  }
  attr {
    key: "cancel_pending_enqueues"
    value {
      b: true
    }
  }
}
node {
  name: "input_producer/input_producer_Size"
  op: "QueueSize"
  input: "input_producer"
  device: "/device:GPU:0"
  attr {
    key: "_class"
    value {
      list {
        s: "loc:@input_producer"
      }
    }
  }
  attr {
    key: "_output_shapes"
    value {
      list {
        shape {
        }
      }
    }
  }
}
node {
  name: "input_producer/Cast"
  op: "Cast"
  input: "input_producer/input_producer_Size"
  device: "/device:GPU:0"
  attr {
    key: "DstT"
    value {
      type: DT_FLOAT
    }
  }
  attr {
    key: "SrcT"
    value {
      type: DT_INT32
    }
  }
  attr {
    key: "_output_shapes"
    value {
      list {
        shape {
        }
      }
    }
  }
}
node {
  name: "input_producer/mul/y"
  op: "Const"
  device: "/device:GPU:0"
  attr {
    key: "_output_shapes"
    value {
      list {
        shape {
        }
      }
    }
  }
  attr {
    key: "dtype"
    value {
      type: DT_FLOAT
    }
  }
  attr {
    key: "value"
    value {
      tensor {
        dtype: DT_FLOAT
        tensor_shape {
        }
        float_val: 0.03125
      }
    }
  }
}
node {
  name: "input_producer/mul"
  op: "Mul"
  input: "input_producer/Cast"
  input: "input_producer/mul/y"
  device: "/device:GPU:0"
  attr {
    key: "T"
    value {
      type: DT_FLOAT
    }
  }
  attr {
    key: "_output_shapes"
    value {
      list {
        shape {
        }
      }
    }
  }
}
node {
  name: "input_producer/queue/input_producer/fraction_of_32_full/tags"
  op: "Const"
  device: "/device:GPU:0"
  attr {
    key: "_output_shapes"
    value {
      list {
        shape {
        }
      }
    }
  }
  attr {
    key: "dtype"
    value {
      type: DT_STRING
    }
  }
  attr {
    key: "value"
    value {
      tensor {
        dtype: DT_STRING
        tensor_shape {
        }
        string_val: "input_producer/queue/input_producer/fraction_of_32_full"
      }
    }
  }
}
node {
  name: "input_producer/queue/input_producer/fraction_of_32_full"
  op: "ScalarSummary"
  input: "input_producer/queue/input_producer/fraction_of_32_full/tags"
  input: "input_producer/mul"
  device: "/device:GPU:0"
  attr {
    key: "T"
    value {
      type: DT_FLOAT
    }
  }
  attr {
    key: "_output_shapes"
    value {
      list {
        shape {
        }
      }
    }
  }
}
node {
  name: "TFRecordReader"
  op: "TFRecordReader"
  device: "/device:GPU:0"
  attr {
    key: "_output_shapes"
    value {
      list {
        shape {
          dim {
            size: 2
          }
        }
      }
    }
  }
  attr {
    key: "compression_type"
    value {
      s: ""
    }
  }
  attr {
    key: "container"
    value {
      s: ""
    }
  }
  attr {
    key: "shared_name"
    value {
      s: ""
    }
  }
}
node {
  name: "ReaderRead"
  op: "ReaderRead"
  input: "TFRecordReader"
  input: "input_producer"
  device: "/device:GPU:0"
  attr {
    key: "_class"
    value {
      list {
        s: "loc:@TFRecordReader"
        s: "loc:@input_producer"
      }
    }
  }
  attr {
    key: "_output_shapes"
    value {
      list {
        shape {
        }
        shape {
        }
      }
    }
  }
}
node {
  name: "ParseSingleExample/ExpandDims/dim"
  op: "Const"
  device: "/device:GPU:0"
  attr {
    key: "_output_shapes"
    value {
      list {
        shape {
        }
      }
    }
  }
  attr {
    key: "dtype"
    value {
      type: DT_INT32
    }
  }
  attr {
    key: "value"
    value {
      tensor {
        dtype: DT_INT32
        tensor_shape {
        }
        int_val: 0
      }
    }
  }
}
node {
  name: "ParseSingleExample/ExpandDims"
  op: "ExpandDims"
  input: "ReaderRead:1"
  input: "ParseSingleExample/ExpandDims/dim"
  device: "/device:GPU:0"
  attr {
    key: "T"
    value {
      type: DT_STRING
    }
  }
  attr {
    key: "Tdim"
    value {
      type: DT_INT32
    }
  }
  attr {
    key: "_output_shapes"
    value {
      list {
        shape {
          dim {
            size: 1
          }
        }
      }
    }
  }
}
node {
  name: "ParseSingleExample/ParseExample/Const"
  op: "Const"
  device: "/device:GPU:0"
  attr {
    key: "_output_shapes"
    value {
      list {
        shape {
          dim {
          }
        }
      }
    }
  }
  attr {
    key: "dtype"
    value {
      type: DT_INT64
    }
  }
  attr {
    key: "value"
    value {
      tensor {
        dtype: DT_INT64
        tensor_shape {
          dim {
          }
        }
      }
    }
  }
}
node {
  name: "ParseSingleExample/ParseExample/Const_1"
  op: "Const"
  device: "/device:GPU:0"
  attr {
    key: "_output_shapes"
    value {
      list {
        shape {
          dim {
          }
        }
      }
    }
  }
  attr {
    key: "dtype"
    value {
      type: DT_INT64
    }
  }
  attr {
    key: "value"
    value {
      tensor {
        dtype: DT_INT64
        tensor_shape {
          dim {
          }
        }
      }
    }
  }
}
node {
  name: "ParseSingleExample/ParseExample/ParseExample/names"
  op: "Const"
  device: "/device:GPU:0"
  attr {
    key: "_output_shapes"
    value {
      list {
        shape {
          dim {
          }
        }
      }
    }
  }
  attr {
    key: "dtype"
    value {
      type: DT_STRING
    }
  }
  attr {
    key: "value"
    value {
      tensor {
        dtype: DT_STRING
        tensor_shape {
          dim {
          }
        }
      }
    }
  }
}
node {
  name: "ParseSingleExample/ParseExample/ParseExample/dense_keys_0"
  op: "Const"
  device: "/device:GPU:0"
  attr {
    key: "_output_shapes"
    value {
      list {
        shape {
        }
      }
    }
  }
  attr {
    key: "dtype"
    value {
      type: DT_STRING
    }
  }
  attr {
    key: "value"
    value {
      tensor {
        dtype: DT_STRING
        tensor_shape {
        }
        string_val: "image"
      }
    }
  }
}
node {
  name: "ParseSingleExample/ParseExample/ParseExample/dense_keys_1"
  op: "Const"
  device: "/device:GPU:0"
  attr {
    key: "_output_shapes"
    value {
      list {
        shape {
        }
      }
    }
  }
  attr {
    key: "dtype"
    value {
      type: DT_STRING
    }
  }
  attr {
    key: "value"
    value {
      tensor {
        dtype: DT_STRING
        tensor_shape {
        }
        string_val: "label"
      }
    }
  }
}
node {
  name: "ParseSingleExample/ParseExample/ParseExample"
  op: "ParseExample"
  input: "ParseSingleExample/ExpandDims"
  input: "ParseSingleExample/ParseExample/ParseExample/names"
  input: "ParseSingleExample/ParseExample/ParseExample/dense_keys_0"
  input: "ParseSingleExample/ParseExample/ParseExample/dense_keys_1"
  input: "ParseSingleExample/ParseExample/Const"
  input: "ParseSingleExample/ParseExample/Const_1"
  device: "/device:GPU:0"
  attr {
    key: "Ndense"
    value {
      i: 2
    }
  }
  attr {
    key: "Nsparse"
    value {
      i: 0
    }
  }
  attr {
    key: "Tdense"
    value {
      list {
        type: DT_INT64
        type: DT_INT64
      }
    }
  }
  attr {
    key: "_output_shapes"
    value {
      list {
        shape {
          dim {
            size: 1
          }
          dim {
            size: 3072
          }
        }
        shape {
          dim {
            size: 1
          }
        }
      }
    }
  }
  attr {
    key: "dense_shapes"
    value {
      list {
        shape {
          dim {
            size: 3072
          }
        }
        shape {
        }
      }
    }
  }
  attr {
    key: "sparse_types"
    value {
      list {
      }
    }
  }
}
node {
  name: "ParseSingleExample/Squeeze_image"
  op: "Squeeze"
  input: "ParseSingleExample/ParseExample/ParseExample"
  device: "/device:GPU:0"
  attr {
    key: "T"
    value {
      type: DT_INT64
    }
  }
  attr {
    key: "_output_shapes"
    value {
      list {
        shape {
          dim {
            size: 3072
          }
        }
      }
    }
  }
  attr {
    key: "squeeze_dims"
    value {
      list {
        i: 0
      }
    }
  }
}
node {
  name: "ParseSingleExample/Squeeze_label"
  op: "Squeeze"
  input: "ParseSingleExample/ParseExample/ParseExample:1"
  device: "/device:GPU:0"
  attr {
    key: "T"
    value {
      type: DT_INT64
    }
  }
  attr {
    key: "_output_shapes"
    value {
      list {
        shape {
        }
      }
    }
  }
  attr {
    key: "squeeze_dims"
    value {
      list {
        i: 0
      }
    }
  }
}
node {
  name: "Reshape/shape"
  op: "Const"
  device: "/device:GPU:0"
  attr {
    key: "_output_shapes"
    value {
      list {
        shape {
          dim {
            size: 3
          }
        }
      }
    }
  }
  attr {
    key: "dtype"
    value {
      type: DT_INT32
    }
  }
  attr {
    key: "value"
    value {
      tensor {
        dtype: DT_INT32
        tensor_shape {
          dim {
            size: 3
          }
        }
        tensor_content: " \000\000\000 \000\000\000\003\000\000\000"
      }
    }
  }
}
node {
  name: "Reshape"
  op: "Reshape"
  input: "ParseSingleExample/Squeeze_image"
  input: "Reshape/shape"
  device: "/device:GPU:0"
  attr {
    key: "T"
    value {
      type: DT_INT64
    }
  }
  attr {
    key: "Tshape"
    value {
      type: DT_INT32
    }
  }
  attr {
    key: "_output_shapes"
    value {
      list {
        shape {
          dim {
            size: 32
          }
          dim {
            size: 32
          }
          dim {
            size: 3
          }
        }
      }
    }
  }
}
node {
  name: "Cast"
  op: "Cast"
  input: "Reshape"
  device: "/device:GPU:0"
  attr {
    key: "DstT"
    value {
      type: DT_FLOAT
    }
  }
  attr {
    key: "SrcT"
    value {
      type: DT_INT64
    }
  }
  attr {
    key: "_output_shapes"
    value {
      list {
        shape {
          dim {
            size: 32
          }
          dim {
            size: 32
          }
          dim {
            size: 3
          }
        }
      }
    }
  }
}
node {
  name: "Cast_1"
  op: "Cast"
  input: "ParseSingleExample/Squeeze_label"
  device: "/device:GPU:0"
  attr {
    key: "DstT"
    value {
      type: DT_INT32
    }
  }
  attr {
    key: "SrcT"
    value {
      type: DT_INT64
    }
  }
  attr {
    key: "_output_shapes"
    value {
      list {
        shape {
        }
      }
    }
  }
}
node {
  name: "Shape"
  op: "Const"
  device: "/device:GPU:0"
  attr {
    key: "_output_shapes"
    value {
      list {
        shape {
          dim {
            size: 3
          }
        }
      }
    }
  }
  attr {
    key: "dtype"
    value {
      type: DT_INT32
    }
  }
  attr {
    key: "value"
    value {
      tensor {
        dtype: DT_INT32
        tensor_shape {
          dim {
            size: 3
          }
        }
        tensor_content: " \000\000\000 \000\000\000\003\000\000\000"
      }
    }
  }
}
node {
  name: "Const"
  op: "Const"
  device: "/device:GPU:0"
  attr {
    key: "_output_shapes"
    value {
      list {
        shape {
          dim {
            size: 1
          }
        }
      }
    }
  }
  attr {
    key: "dtype"
    value {
      type: DT_INT32
    }
  }
  attr {
    key: "value"
    value {
      tensor {
        dtype: DT_INT32
        tensor_shape {
          dim {
            size: 1
          }
        }
        int_val: 0
      }
    }
  }
}
node {
  name: "Prod"
  op: "Prod"
  input: "Shape"
  input: "Const"
  device: "/device:GPU:0"
  attr {
    key: "T"
    value {
      type: DT_INT32
    }
  }
  attr {
    key: "Tidx"
    value {
      type: DT_INT32
    }
  }
  attr {
    key: "_output_shapes"
    value {
      list {
        shape {
        }
      }
    }
  }
  attr {
    key: "keep_dims"
    value {
      b: false
    }
  }
}
node {
  name: "Const_1"
  op: "Const"
  device: "/device:GPU:0"
  attr {
    key: "_output_shapes"
    value {
      list {
        shape {
          dim {
            size: 3
          }
        }
      }
    }
  }
  attr {
    key: "dtype"
    value {
      type: DT_INT32
    }
  }
  attr {
    key: "value"
    value {
      tensor {
        dtype: DT_INT32
        tensor_shape {
          dim {
            size: 3
          }
        }
        tensor_content: "\000\000\000\000\001\000\000\000\002\000\000\000"
      }
    }
  }
}
node {
  name: "Mean"
  op: "Mean"
  input: "Cast"
  input: "Const_1"
  device: "/device:GPU:0"
  attr {
    key: "T"
    value {
      type: DT_FLOAT
    }
  }
  attr {
    key: "Tidx"
    value {
      type: DT_INT32
    }
  }
  attr {
    key: "_output_shapes"
    value {
      list {
        shape {
        }
      }
    }
  }
  attr {
    key: "keep_dims"
    value {
      b: false
    }
  }
}
node {
  name: "Square"
  op: "Square"
  input: "Cast"
  device: "/device:GPU:0"
  attr {
    key: "T"
    value {
      type: DT_FLOAT
    }
  }
  attr {
    key: "_output_shapes"
    value {
      list {
        shape {
          dim {
            size: 32
          }
          dim {
            size: 32
          }
          dim {
            size: 3
          }
        }
      }
    }
  }
}
node {
  name: "Const_2"
  op: "Const"
  device: "/device:GPU:0"
  attr {
    key: "_output_shapes"
    value {
      list {
        shape {
          dim {
            size: 3
          }
        }
      }
    }
  }
  attr {
    key: "dtype"
    value {
      type: DT_INT32
    }
  }
  attr {
    key: "value"
    value {
      tensor {
        dtype: DT_INT32
        tensor_shape {
          dim {
            size: 3
          }
        }
        tensor_content: "\000\000\000\000\001\000\000\000\002\000\000\000"
      }
    }
  }
}
node {
  name: "Mean_1"
  op: "Mean"
  input: "Square"
  input: "Const_2"
  device: "/device:GPU:0"
  attr {
    key: "T"
    value {
      type: DT_FLOAT
    }
  }
  attr {
    key: "Tidx"
    value {
      type: DT_INT32
    }
  }
  attr {
    key: "_output_shapes"
    value {
      list {
        shape {
        }
      }
    }
  }
  attr {
    key: "keep_dims"
    value {
      b: false
    }
  }
}
node {
  name: "Square_1"
  op: "Square"
  input: "Mean"
  device: "/device:GPU:0"
  attr {
    key: "T"
    value {
      type: DT_FLOAT
    }
  }
  attr {
    key: "_output_shapes"
    value {
      list {
        shape {
        }
      }
    }
  }
}
node {
  name: "sub"
  op: "Sub"
  input: "Mean_1"
  input: "Square_1"
  device: "/device:GPU:0"
  attr {
    key: "T"
    value {
      type: DT_FLOAT
    }
  }
  attr {
    key: "_output_shapes"
    value {
      list {
        shape {
        }
      }
    }
  }
}
node {
  name: "Relu"
  op: "Relu"
  input: "sub"
  device: "/device:GPU:0"
  attr {
    key: "T"
    value {
      type: DT_FLOAT
    }
  }
  attr {
    key: "_output_shapes"
    value {
      list {
        shape {
        }
      }
    }
  }
}
node {
  name: "Sqrt"
  op: "Sqrt"
  input: "Relu"
  device: "/device:GPU:0"
  attr {
    key: "T"
    value {
      type: DT_FLOAT
    }
  }
  attr {
    key: "_output_shapes"
    value {
      list {
        shape {
        }
      }
    }
  }
}
node {
  name: "Cast_3"
  op: "Cast"
  input: "Prod"
  device: "/device:GPU:0"
  attr {
    key: "DstT"
    value {
      type: DT_FLOAT
    }
  }
  attr {
    key: "SrcT"
    value {
      type: DT_INT32
    }
  }
  attr {
    key: "_output_shapes"
    value {
      list {
        shape {
        }
      }
    }
  }
}
node {
  name: "Rsqrt"
  op: "Rsqrt"
  input: "Cast_3"
  device: "/device:GPU:0"
  attr {
    key: "T"
    value {
      type: DT_FLOAT
    }
  }
  attr {
    key: "_output_shapes"
    value {
      list {
        shape {
        }
      }
    }
  }
}
node {
  name: "Maximum"
  op: "Maximum"
  input: "Sqrt"
  input: "Rsqrt"
  device: "/device:GPU:0"
  attr {
    key: "T"
    value {
      type: DT_FLOAT
    }
  }
  attr {
    key: "_output_shapes"
    value {
      list {
        shape {
        }
      }
    }
  }
}
node {
  name: "Sub"
  op: "Sub"
  input: "Cast"
  input: "Mean"
  device: "/device:GPU:0"
  attr {
    key: "T"
    value {
      type: DT_FLOAT
    }
  }
  attr {
    key: "_output_shapes"
    value {
      list {
        shape {
          dim {
            size: 32
          }
          dim {
            size: 32
          }
          dim {
            size: 3
          }
        }
      }
    }
  }
}
node {
  name: "Div"
  op: "Div"
  input: "Sub"
  input: "Maximum"
  device: "/device:GPU:0"
  attr {
    key: "T"
    value {
      type: DT_FLOAT
    }
  }
  attr {
    key: "_output_shapes"
    value {
      list {
        shape {
          dim {
            size: 32
          }
          dim {
            size: 32
          }
          dim {
            size: 3
          }
        }
      }
    }
  }
}
node {
  name: "random_shuffle_queue"
  op: "RandomShuffleQueue"
  device: "/device:GPU:0"
  attr {
    key: "_output_shapes"
    value {
      list {
        shape {
          dim {
            size: 2
          }
        }
      }
    }
  }
  attr {
    key: "capacity"
    value {
      i: 1024
    }
  }
  attr {
    key: "component_types"
    value {
      list {
        type: DT_FLOAT
        type: DT_INT32
      }
    }
  }
  attr {
    key: "container"
    value {
      s: ""
    }
  }
  attr {
    key: "min_after_dequeue"
    value {
      i: 4
    }
  }
  attr {
    key: "seed"
    value {
      i: 0
    }
  }
  attr {
    key: "seed2"
    value {
      i: 0
    }
  }
  attr {
    key: "shapes"
    value {
      list {
        shape {
          dim {
            size: 32
          }
          dim {
            size: 32
          }
          dim {
            size: 3
          }
        }
        shape {
          dim {
            size: 1
          }
        }
      }
    }
  }
  attr {
    key: "shared_name"
    value {
      s: ""
    }
  }
}
node {
  name: "random_shuffle_queue_enqueue/component_1"
  op: "Pack"
  input: "Cast_1"
  device: "/device:GPU:0"
  attr {
    key: "N"
    value {
      i: 1
    }
  }
  attr {
    key: "T"
    value {
      type: DT_INT32
    }
  }
  attr {
    key: "_output_shapes"
    value {
      list {
        shape {
          dim {
            size: 1
          }
        }
      }
    }
  }
  attr {
    key: "axis"
    value {
      i: 0
    }
  }
}
node {
  name: "random_shuffle_queue_enqueue"
  op: "QueueEnqueue"
  input: "random_shuffle_queue"
  input: "Div"
  input: "random_shuffle_queue_enqueue/component_1"
  device: "/device:GPU:0"
  attr {
    key: "Tcomponents"
    value {
      list {
        type: DT_FLOAT
        type: DT_INT32
      }
    }
  }
  attr {
    key: "_class"
    value {
      list {
        s: "loc:@random_shuffle_queue"
      }
    }
  }
  attr {
    key: "timeout_ms"
    value {
      i: -1
    }
  }
}
node {
  name: "random_shuffle_queue_Close"
  op: "QueueClose"
  input: "random_shuffle_queue"
  device: "/device:GPU:0"
  attr {
    key: "_class"
    value {
      list {
        s: "loc:@random_shuffle_queue"
      }
    }
  }
  attr {
    key: "cancel_pending_enqueues"
    value {
      b: false
    }
  }
}
node {
  name: "random_shuffle_queue_Close_1"
  op: "QueueClose"
  input: "random_shuffle_queue"
  device: "/device:GPU:0"
  attr {
    key: "_class"
    value {
      list {
        s: "loc:@random_shuffle_queue"
      }
    }
  }
  attr {
    key: "cancel_pending_enqueues"
    value {
      b: true
    }
  }
}
node {
  name: "random_shuffle_queue_DequeueMany/n"
  op: "Const"
  device: "/device:GPU:0"
  attr {
    key: "_output_shapes"
    value {
      list {
        shape {
        }
      }
    }
  }
  attr {
    key: "dtype"
    value {
      type: DT_INT32
    }
  }
  attr {
    key: "value"
    value {
      tensor {
        dtype: DT_INT32
        tensor_shape {
        }
        int_val: 128
      }
    }
  }
}
node {
  name: "random_shuffle_queue_DequeueMany"
  op: "QueueDequeueMany"
  input: "random_shuffle_queue"
  input: "random_shuffle_queue_DequeueMany/n"
  device: "/device:GPU:0"
  attr {
    key: "_class"
    value {
      list {
        s: "loc:@random_shuffle_queue"
      }
    }
  }
  attr {
    key: "_output_shapes"
    value {
      list {
        shape {
          dim {
            size: 128
          }
          dim {
            size: 32
          }
          dim {
            size: 32
          }
          dim {
            size: 3
          }
        }
        shape {
          dim {
            size: 128
          }
          dim {
            size: 1
          }
        }
      }
    }
  }
  attr {
    key: "component_types"
    value {
      list {
        type: DT_FLOAT
        type: DT_INT32
      }
    }
  }
  attr {
    key: "timeout_ms"
    value {
      i: -1
    }
  }
}
node {
  name: "Reshape_1/shape"
  op: "Const"
  device: "/device:GPU:0"
  attr {
    key: "_output_shapes"
    value {
      list {
        shape {
          dim {
            size: 2
          }
        }
      }
    }
  }
  attr {
    key: "dtype"
    value {
      type: DT_INT32
    }
  }
  attr {
    key: "value"
    value {
      tensor {
        dtype: DT_INT32
        tensor_shape {
          dim {
            size: 2
          }
        }
        tensor_content: "\200\000\000\000\001\000\000\000"
      }
    }
  }
}
node {
  name: "Reshape_1"
  op: "Reshape"
  input: "random_shuffle_queue_DequeueMany:1"
  input: "Reshape_1/shape"
  device: "/device:GPU:0"
  attr {
    key: "T"
    value {
      type: DT_INT32
    }
  }
  attr {
    key: "Tshape"
    value {
      type: DT_INT32
    }
  }
  attr {
    key: "_output_shapes"
    value {
      list {
        shape {
          dim {
            size: 128
          }
          dim {
            size: 1
          }
        }
      }
    }
  }
}
node {
  name: "range/start"
  op: "Const"
  device: "/device:GPU:0"
  attr {
    key: "_output_shapes"
    value {
      list {
        shape {
        }
      }
    }
  }
  attr {
    key: "dtype"
    value {
      type: DT_INT32
    }
  }
  attr {
    key: "value"
    value {
      tensor {
        dtype: DT_INT32
        tensor_shape {
        }
        int_val: 0
      }
    }
  }
}
node {
  name: "range/limit"
  op: "Const"
  device: "/device:GPU:0"
  attr {
    key: "_output_shapes"
    value {
      list {
        shape {
        }
      }
    }
  }
  attr {
    key: "dtype"
    value {
      type: DT_INT32
    }
  }
  attr {
    key: "value"
    value {
      tensor {
        dtype: DT_INT32
        tensor_shape {
        }
        int_val: 128
      }
    }
  }
}
node {
  name: "range/delta"
  op: "Const"
  device: "/device:GPU:0"
  attr {
    key: "_output_shapes"
    value {
      list {
        shape {
        }
      }
    }
  }
  attr {
    key: "dtype"
    value {
      type: DT_INT32
    }
  }
  attr {
    key: "value"
    value {
      tensor {
        dtype: DT_INT32
        tensor_shape {
        }
        int_val: 1
      }
    }
  }
}
node {
  name: "range"
  op: "Range"
  input: "range/start"
  input: "range/limit"
  input: "range/delta"
  device: "/device:GPU:0"
  attr {
    key: "Tidx"
    value {
      type: DT_INT32
    }
  }
  attr {
    key: "_output_shapes"
    value {
      list {
        shape {
          dim {
            size: 128
          }
        }
      }
    }
  }
}
node {
  name: "Reshape_2/shape"
  op: "Const"
  device: "/device:GPU:0"
  attr {
    key: "_output_shapes"
    value {
      list {
        shape {
          dim {
            size: 2
          }
        }
      }
    }
  }
  attr {
    key: "dtype"
    value {
      type: DT_INT32
    }
  }
  attr {
    key: "value"
    value {
      tensor {
        dtype: DT_INT32
        tensor_shape {
          dim {
            size: 2
          }
        }
        tensor_content: "\200\000\000\000\001\000\000\000"
      }
    }
  }
}
node {
  name: "Reshape_2"
  op: "Reshape"
  input: "range"
  input: "Reshape_2/shape"
  device: "/device:GPU:0"
  attr {
    key: "T"
    value {
      type: DT_INT32
    }
  }
  attr {
    key: "Tshape"
    value {
      type: DT_INT32
    }
  }
  attr {
    key: "_output_shapes"
    value {
      list {
        shape {
          dim {
            size: 128
          }
          dim {
            size: 1
          }
        }
      }
    }
  }
}
node {
  name: "concat/concat_dim"
  op: "Const"
  device: "/device:GPU:0"
  attr {
    key: "_output_shapes"
    value {
      list {
        shape {
        }
      }
    }
  }
  attr {
    key: "dtype"
    value {
      type: DT_INT32
    }
  }
  attr {
    key: "value"
    value {
      tensor {
        dtype: DT_INT32
        tensor_shape {
        }
        int_val: 1
      }
    }
  }
}
node {
  name: "concat"
  op: "Concat"
  input: "concat/concat_dim"
  input: "Reshape_2"
  input: "Reshape_1"
  device: "/device:GPU:0"
  attr {
    key: "N"
    value {
      i: 2
    }
  }
  attr {
    key: "T"
    value {
      type: DT_INT32
    }
  }
  attr {
    key: "_output_shapes"
    value {
      list {
        shape {
          dim {
            size: 128
          }
          dim {
            size: 2
          }
        }
      }
    }
  }
}
node {
  name: "SparseToDense/output_shape"
  op: "Const"
  device: "/device:GPU:0"
  attr {
    key: "_output_shapes"
    value {
      list {
        shape {
          dim {
            size: 2
          }
        }
      }
    }
  }
  attr {
    key: "dtype"
    value {
      type: DT_INT32
    }
  }
  attr {
    key: "value"
    value {
      tensor {
        dtype: DT_INT32
        tensor_shape {
          dim {
            size: 2
          }
        }
        tensor_content: "\200\000\000\000+\000\000\000"
      }
    }
  }
}
node {
  name: "SparseToDense/sparse_values"
  op: "Const"
  device: "/device:GPU:0"
  attr {
    key: "_output_shapes"
    value {
      list {
        shape {
        }
      }
    }
  }
  attr {
    key: "dtype"
    value {
      type: DT_FLOAT
    }
  }
  attr {
    key: "value"
    value {
      tensor {
        dtype: DT_FLOAT
        tensor_shape {
        }
        float_val: 1.0
      }
    }
  }
}
node {
  name: "SparseToDense/default_value"
  op: "Const"
  device: "/device:GPU:0"
  attr {
    key: "_output_shapes"
    value {
      list {
        shape {
        }
      }
    }
  }
  attr {
    key: "dtype"
    value {
      type: DT_FLOAT
    }
  }
  attr {
    key: "value"
    value {
      tensor {
        dtype: DT_FLOAT
        tensor_shape {
        }
        float_val: 0.0
      }
    }
  }
}
node {
  name: "SparseToDense"
  op: "SparseToDense"
  input: "concat"
  input: "SparseToDense/output_shape"
  input: "SparseToDense/sparse_values"
  input: "SparseToDense/default_value"
  device: "/device:GPU:0"
  attr {
    key: "T"
    value {
      type: DT_FLOAT
    }
  }
  attr {
    key: "Tindices"
    value {
      type: DT_INT32
    }
  }
  attr {
    key: "_output_shapes"
    value {
      list {
        shape {
          dim {
            size: 128
          }
          dim {
            size: 43
          }
        }
      }
    }
  }
  attr {
    key: "validate_indices"
    value {
      b: true
    }
  }
}
node {
  name: "batch_images/tag"
  op: "Const"
  device: "/device:GPU:0"
  attr {
    key: "_output_shapes"
    value {
      list {
        shape {
        }
      }
    }
  }
  attr {
    key: "dtype"
    value {
      type: DT_STRING
    }
  }
  attr {
    key: "value"
    value {
      tensor {
        dtype: DT_STRING
        tensor_shape {
        }
        string_val: "batch_images"
      }
    }
  }
}
node {
  name: "batch_images"
  op: "ImageSummary"
  input: "batch_images/tag"
  input: "random_shuffle_queue_DequeueMany"
  device: "/device:GPU:0"
  attr {
    key: "T"
    value {
      type: DT_FLOAT
    }
  }
  attr {
    key: "_output_shapes"
    value {
      list {
        shape {
        }
      }
    }
  }
  attr {
    key: "bad_color"
    value {
      tensor {
        dtype: DT_UINT8
        tensor_shape {
          dim {
            size: 4
          }
        }
        int_val: 255
        int_val: 0
        int_val: 0
        int_val: 255
      }
    }
  }
  attr {
    key: "max_images"
    value {
      i: 3
    }
  }
}
node {
  name: "train/global_step"
  op: "Variable"
  device: "/device:GPU:0"
  attr {
    key: "_output_shapes"
    value {
      list {
        shape {
        }
      }
    }
  }
  attr {
    key: "container"
    value {
      s: ""
    }
  }
  attr {
    key: "dtype"
    value {
      type: DT_INT64
    }
  }
  attr {
    key: "shape"
    value {
      shape {
      }
    }
  }
  attr {
    key: "shared_name"
    value {
      s: ""
    }
  }
}
node {
  name: "train/global_step/Initializer/zeros"
  op: "Const"
  device: "/device:GPU:0"
  attr {
    key: "_class"
    value {
      list {
        s: "loc:@train/global_step"
      }
    }
  }
  attr {
    key: "_output_shapes"
    value {
      list {
        shape {
        }
      }
    }
  }
  attr {
    key: "dtype"
    value {
      type: DT_INT64
    }
  }
  attr {
    key: "value"
    value {
      tensor {
        dtype: DT_INT64
        tensor_shape {
        }
        int64_val: 0
      }
    }
  }
}
node {
  name: "train/global_step/Assign"
  op: "Assign"
  input: "train/global_step"
  input: "train/global_step/Initializer/zeros"
  device: "/device:GPU:0"
  attr {
    key: "T"
    value {
      type: DT_INT64
    }
  }
  attr {
    key: "_class"
    value {
      list {
        s: "loc:@train/global_step"
      }
    }
  }
  attr {
    key: "_output_shapes"
    value {
      list {
        shape {
        }
      }
    }
  }
  attr {
    key: "use_locking"
    value {
      b: true
    }
  }
  attr {
    key: "validate_shape"
    value {
      b: true
    }
  }
}
node {
  name: "train/global_step/read"
  op: "Identity"
  input: "train/global_step"
  device: "/device:GPU:0"
  attr {
    key: "T"
    value {
      type: DT_INT64
    }
  }
  attr {
    key: "_class"
    value {
      list {
        s: "loc:@train/global_step"
      }
    }
  }
  attr {
    key: "_output_shapes"
    value {
      list {
        shape {
        }
      }
    }
  }
}
node {
  name: "train/init/conv3x3/weights"
  op: "Variable"
  device: "/device:GPU:0"
  attr {
    key: "_output_shapes"
    value {
      list {
        shape {
          dim {
            size: 3
          }
          dim {
            size: 3
          }
          dim {
            size: 3
          }
          dim {
            size: 16
          }
        }
      }
    }
  }
  attr {
    key: "container"
    value {
      s: ""
    }
  }
  attr {
    key: "dtype"
    value {
      type: DT_FLOAT
    }
  }
  attr {
    key: "shape"
    value {
      shape {
        dim {
          size: 3
        }
        dim {
          size: 3
        }
        dim {
          size: 3
        }
        dim {
          size: 16
        }
      }
    }
  }
  attr {
    key: "shared_name"
    value {
      s: ""
    }
  }
}
node {
  name: "train/init/conv3x3/weights/Initializer/random_normal/shape"
  op: "Const"
  device: "/device:GPU:0"
  attr {
    key: "_class"
    value {
      list {
        s: "loc:@train/init/conv3x3/weights"
      }
    }
  }
  attr {
    key: "_output_shapes"
    value {
      list {
        shape {
          dim {
            size: 4
          }
        }
      }
    }
  }
  attr {
    key: "dtype"
    value {
      type: DT_INT32
    }
  }
  attr {
    key: "value"
    value {
      tensor {
        dtype: DT_INT32
        tensor_shape {
          dim {
            size: 4
          }
        }
        tensor_content: "\003\000\000\000\003\000\000\000\003\000\000\000\020\000\000\000"
      }
    }
  }
}
node {
  name: "train/init/conv3x3/weights/Initializer/random_normal/mean"
  op: "Const"
  device: "/device:GPU:0"
  attr {
    key: "_class"
    value {
      list {
        s: "loc:@train/init/conv3x3/weights"
      }
    }
  }
  attr {
    key: "_output_shapes"
    value {
      list {
        shape {
        }
      }
    }
  }
  attr {
    key: "dtype"
    value {
      type: DT_FLOAT
    }
  }
  attr {
    key: "value"
    value {
      tensor {
        dtype: DT_FLOAT
        tensor_shape {
        }
        float_val: 0.0
      }
    }
  }
}
node {
  name: "train/init/conv3x3/weights/Initializer/random_normal/stddev"
  op: "Const"
  device: "/device:GPU:0"
  attr {
    key: "_class"
    value {
      list {
        s: "loc:@train/init/conv3x3/weights"
      }
    }
  }
  attr {
    key: "_output_shapes"
    value {
      list {
        shape {
        }
      }
    }
  }
  attr {
    key: "dtype"
    value {
      type: DT_FLOAT
    }
  }
  attr {
    key: "value"
    value {
      tensor {
        dtype: DT_FLOAT
        tensor_shape {
        }
        float_val: 0.1178511306643486
      }
    }
  }
}
node {
  name: "train/init/conv3x3/weights/Initializer/random_normal/RandomStandardNormal"
  op: "RandomStandardNormal"
  input: "train/init/conv3x3/weights/Initializer/random_normal/shape"
  device: "/device:GPU:0"
  attr {
    key: "T"
    value {
      type: DT_INT32
    }
  }
  attr {
    key: "_class"
    value {
      list {
        s: "loc:@train/init/conv3x3/weights"
      }
    }
  }
  attr {
    key: "_output_shapes"
    value {
      list {
        shape {
          dim {
            size: 3
          }
          dim {
            size: 3
          }
          dim {
            size: 3
          }
          dim {
            size: 16
          }
        }
      }
    }
  }
  attr {
    key: "dtype"
    value {
      type: DT_FLOAT
    }
  }
  attr {
    key: "seed"
    value {
      i: 0
    }
  }
  attr {
    key: "seed2"
    value {
      i: 0
    }
  }
}
node {
  name: "train/init/conv3x3/weights/Initializer/random_normal/mul"
  op: "Mul"
  input: "train/init/conv3x3/weights/Initializer/random_normal/RandomStandardNormal"
  input: "train/init/conv3x3/weights/Initializer/random_normal/stddev"
  device: "/device:GPU:0"
  attr {
    key: "T"
    value {
      type: DT_FLOAT
    }
  }
  attr {
    key: "_class"
    value {
      list {
        s: "loc:@train/init/conv3x3/weights"
      }
    }
  }
  attr {
    key: "_output_shapes"
    value {
      list {
        shape {
          dim {
            size: 3
          }
          dim {
            size: 3
          }
          dim {
            size: 3
          }
          dim {
            size: 16
          }
        }
      }
    }
  }
}
node {
  name: "train/init/conv3x3/weights/Initializer/random_normal"
  op: "Add"
  input: "train/init/conv3x3/weights/Initializer/random_normal/mul"
  input: "train/init/conv3x3/weights/Initializer/random_normal/mean"
  device: "/device:GPU:0"
  attr {
    key: "T"
    value {
      type: DT_FLOAT
    }
  }
  attr {
    key: "_class"
    value {
      list {
        s: "loc:@train/init/conv3x3/weights"
      }
    }
  }
  attr {
    key: "_output_shapes"
    value {
      list {
        shape {
          dim {
            size: 3
          }
          dim {
            size: 3
          }
          dim {
            size: 3
          }
          dim {
            size: 16
          }
        }
      }
    }
  }
}
node {
  name: "train/init/conv3x3/weights/Assign"
  op: "Assign"
  input: "train/init/conv3x3/weights"
  input: "train/init/conv3x3/weights/Initializer/random_normal"
  device: "/device:GPU:0"
  attr {
    key: "T"
    value {
      type: DT_FLOAT
    }
  }
  attr {
    key: "_class"
    value {
      list {
        s: "loc:@train/init/conv3x3/weights"
      }
    }
  }
  attr {
    key: "_output_shapes"
    value {
      list {
        shape {
          dim {
            size: 3
          }
          dim {
            size: 3
          }
          dim {
            size: 3
          }
          dim {
            size: 16
          }
        }
      }
    }
  }
  attr {
    key: "use_locking"
    value {
      b: true
    }
  }
  attr {
    key: "validate_shape"
    value {
      b: true
    }
  }
}
node {
  name: "train/init/conv3x3/weights/read"
  op: "Identity"
  input: "train/init/conv3x3/weights"
  device: "/device:GPU:0"
  attr {
    key: "T"
    value {
      type: DT_FLOAT
    }
  }
  attr {
    key: "_class"
    value {
      list {
        s: "loc:@train/init/conv3x3/weights"
      }
    }
  }
  attr {
    key: "_output_shapes"
    value {
      list {
        shape {
          dim {
            size: 3
          }
          dim {
            size: 3
          }
          dim {
            size: 3
          }
          dim {
            size: 16
          }
        }
      }
    }
  }
}
node {
  name: "train/init/conv3x3/Conv2D"
  op: "Conv2D"
  input: "random_shuffle_queue_DequeueMany"
  input: "train/init/conv3x3/weights/read"
  device: "/device:GPU:0"
  attr {
    key: "T"
    value {
      type: DT_FLOAT
    }
  }
  attr {
    key: "_output_shapes"
    value {
      list {
        shape {
          dim {
            size: 128
          }
          dim {
            size: 32
          }
          dim {
            size: 32
          }
          dim {
            size: 16
          }
        }
      }
    }
  }
  attr {
    key: "data_format"
    value {
      s: "NHWC"
    }
  }
  attr {
    key: "padding"
    value {
      s: "SAME"
    }
  }
  attr {
    key: "strides"
    value {
      list {
        i: 1
        i: 1
        i: 1
        i: 1
      }
    }
  }
  attr {
    key: "use_cudnn_on_gpu"
    value {
      b: true
    }
  }
}
node {
  name: "train/resunit_transition_1/shortcut/conv1x1/weights"
  op: "Variable"
  device: "/device:GPU:0"
  attr {
    key: "_output_shapes"
    value {
      list {
        shape {
          dim {
            size: 1
          }
          dim {
            size: 1
          }
          dim {
            size: 16
          }
          dim {
            size: 64
          }
        }
      }
    }
  }
  attr {
    key: "container"
    value {
      s: ""
    }
  }
  attr {
    key: "dtype"
    value {
      type: DT_FLOAT
    }
  }
  attr {
    key: "shape"
    value {
      shape {
        dim {
          size: 1
        }
        dim {
          size: 1
        }
        dim {
          size: 16
        }
        dim {
          size: 64
        }
      }
    }
  }
  attr {
    key: "shared_name"
    value {
      s: ""
    }
  }
}
node {
  name: "train/resunit_transition_1/shortcut/conv1x1/weights/Initializer/random_normal/shape"
  op: "Const"
  device: "/device:GPU:0"
  attr {
    key: "_class"
    value {
      list {
        s: "loc:@train/resunit_transition_1/shortcut/conv1x1/weights"
      }
    }
  }
  attr {
    key: "_output_shapes"
    value {
      list {
        shape {
          dim {
            size: 4
          }
        }
      }
    }
  }
  attr {
    key: "dtype"
    value {
      type: DT_INT32
    }
  }
  attr {
    key: "value"
    value {
      tensor {
        dtype: DT_INT32
        tensor_shape {
          dim {
            size: 4
          }
        }
        tensor_content: "\001\000\000\000\001\000\000\000\020\000\000\000@\000\000\000"
      }
    }
  }
}
node {
  name: "train/resunit_transition_1/shortcut/conv1x1/weights/Initializer/random_normal/mean"
  op: "Const"
  device: "/device:GPU:0"
  attr {
    key: "_class"
    value {
      list {
        s: "loc:@train/resunit_transition_1/shortcut/conv1x1/weights"
      }
    }
  }
  attr {
    key: "_output_shapes"
    value {
      list {
        shape {
        }
      }
    }
  }
  attr {
    key: "dtype"
    value {
      type: DT_FLOAT
    }
  }
  attr {
    key: "value"
    value {
      tensor {
        dtype: DT_FLOAT
        tensor_shape {
        }
        float_val: 0.0
      }
    }
  }
}
node {
  name: "train/resunit_transition_1/shortcut/conv1x1/weights/Initializer/random_normal/stddev"
  op: "Const"
  device: "/device:GPU:0"
  attr {
    key: "_class"
    value {
      list {
        s: "loc:@train/resunit_transition_1/shortcut/conv1x1/weights"
      }
    }
  }
  attr {
    key: "_output_shapes"
    value {
      list {
        shape {
        }
      }
    }
  }
  attr {
    key: "dtype"
    value {
      type: DT_FLOAT
    }
  }
  attr {
    key: "value"
    value {
      tensor {
        dtype: DT_FLOAT
        tensor_shape {
        }
        float_val: 0.1767766922712326
      }
    }
  }
}
node {
  name: "train/resunit_transition_1/shortcut/conv1x1/weights/Initializer/random_normal/RandomStandardNormal"
  op: "RandomStandardNormal"
  input: "train/resunit_transition_1/shortcut/conv1x1/weights/Initializer/random_normal/shape"
  device: "/device:GPU:0"
  attr {
    key: "T"
    value {
      type: DT_INT32
    }
  }
  attr {
    key: "_class"
    value {
      list {
        s: "loc:@train/resunit_transition_1/shortcut/conv1x1/weights"
      }
    }
  }
  attr {
    key: "_output_shapes"
    value {
      list {
        shape {
          dim {
            size: 1
          }
          dim {
            size: 1
          }
          dim {
            size: 16
          }
          dim {
            size: 64
          }
        }
      }
    }
  }
  attr {
    key: "dtype"
    value {
      type: DT_FLOAT
    }
  }
  attr {
    key: "seed"
    value {
      i: 0
    }
  }
  attr {
    key: "seed2"
    value {
      i: 0
    }
  }
}
node {
  name: "train/resunit_transition_1/shortcut/conv1x1/weights/Initializer/random_normal/mul"
  op: "Mul"
  input: "train/resunit_transition_1/shortcut/conv1x1/weights/Initializer/random_normal/RandomStandardNormal"
  input: "train/resunit_transition_1/shortcut/conv1x1/weights/Initializer/random_normal/stddev"
  device: "/device:GPU:0"
  attr {
    key: "T"
    value {
      type: DT_FLOAT
    }
  }
  attr {
    key: "_class"
    value {
      list {
        s: "loc:@train/resunit_transition_1/shortcut/conv1x1/weights"
      }
    }
  }
  attr {
    key: "_output_shapes"
    value {
      list {
        shape {
          dim {
            size: 1
          }
          dim {
            size: 1
          }
          dim {
            size: 16
          }
          dim {
            size: 64
          }
        }
      }
    }
  }
}
node {
  name: "train/resunit_transition_1/shortcut/conv1x1/weights/Initializer/random_normal"
  op: "Add"
  input: "train/resunit_transition_1/shortcut/conv1x1/weights/Initializer/random_normal/mul"
  input: "train/resunit_transition_1/shortcut/conv1x1/weights/Initializer/random_normal/mean"
  device: "/device:GPU:0"
  attr {
    key: "T"
    value {
      type: DT_FLOAT
    }
  }
  attr {
    key: "_class"
    value {
      list {
        s: "loc:@train/resunit_transition_1/shortcut/conv1x1/weights"
      }
    }
  }
  attr {
    key: "_output_shapes"
    value {
      list {
        shape {
          dim {
            size: 1
          }
          dim {
            size: 1
          }
          dim {
            size: 16
          }
          dim {
            size: 64
          }
        }
      }
    }
  }
}
node {
  name: "train/resunit_transition_1/shortcut/conv1x1/weights/Assign"
  op: "Assign"
  input: "train/resunit_transition_1/shortcut/conv1x1/weights"
  input: "train/resunit_transition_1/shortcut/conv1x1/weights/Initializer/random_normal"
  device: "/device:GPU:0"
  attr {
    key: "T"
    value {
      type: DT_FLOAT
    }
  }
  attr {
    key: "_class"
    value {
      list {
        s: "loc:@train/resunit_transition_1/shortcut/conv1x1/weights"
      }
    }
  }
  attr {
    key: "_output_shapes"
    value {
      list {
        shape {
          dim {
            size: 1
          }
          dim {
            size: 1
          }
          dim {
            size: 16
          }
          dim {
            size: 64
          }
        }
      }
    }
  }
  attr {
    key: "use_locking"
    value {
      b: true
    }
  }
  attr {
    key: "validate_shape"
    value {
      b: true
    }
  }
}
node {
  name: "train/resunit_transition_1/shortcut/conv1x1/weights/read"
  op: "Identity"
  input: "train/resunit_transition_1/shortcut/conv1x1/weights"
  device: "/device:GPU:0"
  attr {
    key: "T"
    value {
      type: DT_FLOAT
    }
  }
  attr {
    key: "_class"
    value {
      list {
        s: "loc:@train/resunit_transition_1/shortcut/conv1x1/weights"
      }
    }
  }
  attr {
    key: "_output_shapes"
    value {
      list {
        shape {
          dim {
            size: 1
          }
          dim {
            size: 1
          }
          dim {
            size: 16
          }
          dim {
            size: 64
          }
        }
      }
    }
  }
}
node {
  name: "train/resunit_transition_1/shortcut/conv1x1/Conv2D"
  op: "Conv2D"
  input: "train/init/conv3x3/Conv2D"
  input: "train/resunit_transition_1/shortcut/conv1x1/weights/read"
  device: "/device:GPU:0"
  attr {
    key: "T"
    value {
      type: DT_FLOAT
    }
  }
  attr {
    key: "_output_shapes"
    value {
      list {
        shape {
          dim {
            size: 128
          }
          dim {
            size: 32
          }
          dim {
            size: 32
          }
          dim {
            size: 64
          }
        }
      }
    }
  }
  attr {
    key: "data_format"
    value {
      s: "NHWC"
    }
  }
  attr {
    key: "padding"
    value {
      s: "SAME"
    }
  }
  attr {
    key: "strides"
    value {
      list {
        i: 1
        i: 1
        i: 1
        i: 1
      }
    }
  }
  attr {
    key: "use_cudnn_on_gpu"
    value {
      b: true
    }
  }
}
node {
  name: "train/resunit_transition_1/bottleneck_0/batch_norm_0/beta"
  op: "Variable"
  device: "/device:GPU:0"
  attr {
    key: "_output_shapes"
    value {
      list {
        shape {
          dim {
            size: 16
          }
        }
      }
    }
  }
  attr {
    key: "container"
    value {
      s: ""
    }
  }
  attr {
    key: "dtype"
    value {
      type: DT_FLOAT
    }
  }
  attr {
    key: "shape"
    value {
      shape {
        dim {
          size: 16
        }
      }
    }
  }
  attr {
    key: "shared_name"
    value {
      s: ""
    }
  }
}
node {
  name: "train/resunit_transition_1/bottleneck_0/batch_norm_0/beta/Initializer/Const"
  op: "Const"
  device: "/device:GPU:0"
  attr {
    key: "_class"
    value {
      list {
        s: "loc:@train/resunit_transition_1/bottleneck_0/batch_norm_0/beta"
      }
    }
  }
  attr {
    key: "_output_shapes"
    value {
      list {
        shape {
          dim {
            size: 16
          }
        }
      }
    }
  }
  attr {
    key: "dtype"
    value {
      type: DT_FLOAT
    }
  }
  attr {
    key: "value"
    value {
      tensor {
        dtype: DT_FLOAT
        tensor_shape {
          dim {
            size: 16
          }
        }
        float_val: 0.0
      }
    }
  }
}
node {
  name: "train/resunit_transition_1/bottleneck_0/batch_norm_0/beta/Assign"
  op: "Assign"
  input: "train/resunit_transition_1/bottleneck_0/batch_norm_0/beta"
  input: "train/resunit_transition_1/bottleneck_0/batch_norm_0/beta/Initializer/Const"
  device: "/device:GPU:0"
  attr {
    key: "T"
    value {
      type: DT_FLOAT
    }
  }
  attr {
    key: "_class"
    value {
      list {
        s: "loc:@train/resunit_transition_1/bottleneck_0/batch_norm_0/beta"
      }
    }
  }
  attr {
    key: "_output_shapes"
    value {
      list {
        shape {
          dim {
            size: 16
          }
        }
      }
    }
  }
  attr {
    key: "use_locking"
    value {
      b: true
    }
  }
  attr {
    key: "validate_shape"
    value {
      b: true
    }
  }
}
node {
  name: "train/resunit_transition_1/bottleneck_0/batch_norm_0/beta/read"
  op: "Identity"
  input: "train/resunit_transition_1/bottleneck_0/batch_norm_0/beta"
  device: "/device:GPU:0"
  attr {
    key: "T"
    value {
      type: DT_FLOAT
    }
  }
  attr {
    key: "_class"
    value {
      list {
        s: "loc:@train/resunit_transition_1/bottleneck_0/batch_norm_0/beta"
      }
    }
  }
  attr {
    key: "_output_shapes"
    value {
      list {
        shape {
          dim {
            size: 16
          }
        }
      }
    }
  }
}
node {
  name: "train/resunit_transition_1/bottleneck_0/batch_norm_0/gamma"
  op: "Variable"
  device: "/device:GPU:0"
  attr {
    key: "_output_shapes"
    value {
      list {
        shape {
          dim {
            size: 16
          }
        }
      }
    }
  }
  attr {
    key: "container"
    value {
      s: ""
    }
  }
  attr {
    key: "dtype"
    value {
      type: DT_FLOAT
    }
  }
  attr {
    key: "shape"
    value {
      shape {
        dim {
          size: 16
        }
      }
    }
  }
  attr {
    key: "shared_name"
    value {
      s: ""
    }
  }
}
node {
  name: "train/resunit_transition_1/bottleneck_0/batch_norm_0/gamma/Initializer/Const"
  op: "Const"
  device: "/device:GPU:0"
  attr {
    key: "_class"
    value {
      list {
        s: "loc:@train/resunit_transition_1/bottleneck_0/batch_norm_0/gamma"
      }
    }
  }
  attr {
    key: "_output_shapes"
    value {
      list {
        shape {
          dim {
            size: 16
          }
        }
      }
    }
  }
  attr {
    key: "dtype"
    value {
      type: DT_FLOAT
    }
  }
  attr {
    key: "value"
    value {
      tensor {
        dtype: DT_FLOAT
        tensor_shape {
          dim {
            size: 16
          }
        }
        float_val: 1.0
      }
    }
  }
}
node {
  name: "train/resunit_transition_1/bottleneck_0/batch_norm_0/gamma/Assign"
  op: "Assign"
  input: "train/resunit_transition_1/bottleneck_0/batch_norm_0/gamma"
  input: "train/resunit_transition_1/bottleneck_0/batch_norm_0/gamma/Initializer/Const"
  device: "/device:GPU:0"
  attr {
    key: "T"
    value {
      type: DT_FLOAT
    }
  }
  attr {
    key: "_class"
    value {
      list {
        s: "loc:@train/resunit_transition_1/bottleneck_0/batch_norm_0/gamma"
      }
    }
  }
  attr {
    key: "_output_shapes"
    value {
      list {
        shape {
          dim {
            size: 16
          }
        }
      }
    }
  }
  attr {
    key: "use_locking"
    value {
      b: true
    }
  }
  attr {
    key: "validate_shape"
    value {
      b: true
    }
  }
}
node {
  name: "train/resunit_transition_1/bottleneck_0/batch_norm_0/gamma/read"
  op: "Identity"
  input: "train/resunit_transition_1/bottleneck_0/batch_norm_0/gamma"
  device: "/device:GPU:0"
  attr {
    key: "T"
    value {
      type: DT_FLOAT
    }
  }
  attr {
    key: "_class"
    value {
      list {
        s: "loc:@train/resunit_transition_1/bottleneck_0/batch_norm_0/gamma"
      }
    }
  }
  attr {
    key: "_output_shapes"
    value {
      list {
        shape {
          dim {
            size: 16
          }
        }
      }
    }
  }
}
node {
  name: "train/resunit_transition_1/bottleneck_0/batch_norm_0/moments/moments/Const"
  op: "Const"
  device: "/device:GPU:0"
  attr {
    key: "_output_shapes"
    value {
      list {
        shape {
        }
      }
    }
  }
  attr {
    key: "dtype"
    value {
      type: DT_FLOAT
    }
  }
  attr {
    key: "value"
    value {
      tensor {
        dtype: DT_FLOAT
        tensor_shape {
        }
        float_val: 131072.0
      }
    }
  }
}
node {
  name: "train/resunit_transition_1/bottleneck_0/batch_norm_0/moments/moments/Square"
  op: "Square"
  input: "train/init/conv3x3/Conv2D"
  device: "/device:GPU:0"
  attr {
    key: "T"
    value {
      type: DT_FLOAT
    }
  }
  attr {
    key: "_output_shapes"
    value {
      list {
        shape {
          dim {
            size: 128
          }
          dim {
            size: 32
          }
          dim {
            size: 32
          }
          dim {
            size: 16
          }
        }
      }
    }
  }
}
node {
  name: "train/resunit_transition_1/bottleneck_0/batch_norm_0/moments/moments/mean_ss/reduction_indices"
  op: "Const"
  device: "/device:GPU:0"
  attr {
    key: "_output_shapes"
    value {
      list {
        shape {
          dim {
            size: 3
          }
        }
      }
    }
  }
  attr {
    key: "dtype"
    value {
      type: DT_INT32
    }
  }
  attr {
    key: "value"
    value {
      tensor {
        dtype: DT_INT32
        tensor_shape {
          dim {
            size: 3
          }
        }
        tensor_content: "\000\000\000\000\001\000\000\000\002\000\000\000"
      }
    }
  }
}
node {
  name: "train/resunit_transition_1/bottleneck_0/batch_norm_0/moments/moments/mean_ss"
  op: "Sum"
  input: "train/init/conv3x3/Conv2D"
  input: "train/resunit_transition_1/bottleneck_0/batch_norm_0/moments/moments/mean_ss/reduction_indices"
  device: "/device:GPU:0"
  attr {
    key: "T"
    value {
      type: DT_FLOAT
    }
  }
  attr {
    key: "Tidx"
    value {
      type: DT_INT32
    }
  }
  attr {
    key: "_output_shapes"
    value {
      list {
        shape {
          dim {
            size: 16
          }
        }
      }
    }
  }
  attr {
    key: "keep_dims"
    value {
      b: false
    }
  }
}
node {
  name: "train/resunit_transition_1/bottleneck_0/batch_norm_0/moments/moments/var_ss/reduction_indices"
  op: "Const"
  device: "/device:GPU:0"
  attr {
    key: "_output_shapes"
    value {
      list {
        shape {
          dim {
            size: 3
          }
        }
      }
    }
  }
  attr {
    key: "dtype"
    value {
      type: DT_INT32
    }
  }
  attr {
    key: "value"
    value {
      tensor {
        dtype: DT_INT32
        tensor_shape {
          dim {
            size: 3
          }
        }
        tensor_content: "\000\000\000\000\001\000\000\000\002\000\000\000"
      }
    }
  }
}
node {
  name: "train/resunit_transition_1/bottleneck_0/batch_norm_0/moments/moments/var_ss"
  op: "Sum"
  input: "train/resunit_transition_1/bottleneck_0/batch_norm_0/moments/moments/Square"
  input: "train/resunit_transition_1/bottleneck_0/batch_norm_0/moments/moments/var_ss/reduction_indices"
  device: "/device:GPU:0"
  attr {
    key: "T"
    value {
      type: DT_FLOAT
    }
  }
  attr {
    key: "Tidx"
    value {
      type: DT_INT32
    }
  }
  attr {
    key: "_output_shapes"
    value {
      list {
        shape {
          dim {
            size: 16
          }
        }
      }
    }
  }
  attr {
    key: "keep_dims"
    value {
      b: false
    }
  }
}
node {
  name: "train/resunit_transition_1/bottleneck_0/batch_norm_0/moments/moments_1/divisor"
  op: "Reciprocal"
  input: "train/resunit_transition_1/bottleneck_0/batch_norm_0/moments/moments/Const"
  input: "^train/resunit_transition_1/bottleneck_0/batch_norm_0/moments/moments/mean_ss"
  input: "^train/resunit_transition_1/bottleneck_0/batch_norm_0/moments/moments/var_ss"
  device: "/device:GPU:0"
  attr {
    key: "T"
    value {
      type: DT_FLOAT
    }
  }
  attr {
    key: "_output_shapes"
    value {
      list {
        shape {
        }
      }
    }
  }
}
node {
  name: "train/resunit_transition_1/bottleneck_0/batch_norm_0/moments/moments_1/mean"
  op: "Mul"
  input: "train/resunit_transition_1/bottleneck_0/batch_norm_0/moments/moments/mean_ss"
  input: "train/resunit_transition_1/bottleneck_0/batch_norm_0/moments/moments_1/divisor"
  device: "/device:GPU:0"
  attr {
    key: "T"
    value {
      type: DT_FLOAT
    }
  }
  attr {
    key: "_output_shapes"
    value {
      list {
        shape {
          dim {
            size: 16
          }
        }
      }
    }
  }
}
node {
  name: "train/resunit_transition_1/bottleneck_0/batch_norm_0/moments/moments_1/Mul"
  op: "Mul"
  input: "train/resunit_transition_1/bottleneck_0/batch_norm_0/moments/moments/var_ss"
  input: "train/resunit_transition_1/bottleneck_0/batch_norm_0/moments/moments_1/divisor"
  device: "/device:GPU:0"
  attr {
    key: "T"
    value {
      type: DT_FLOAT
    }
  }
  attr {
    key: "_output_shapes"
    value {
      list {
        shape {
          dim {
            size: 16
          }
        }
      }
    }
  }
}
node {
  name: "train/resunit_transition_1/bottleneck_0/batch_norm_0/moments/moments_1/Square"
  op: "Square"
  input: "train/resunit_transition_1/bottleneck_0/batch_norm_0/moments/moments_1/mean"
  device: "/device:GPU:0"
  attr {
    key: "T"
    value {
      type: DT_FLOAT
    }
  }
  attr {
    key: "_output_shapes"
    value {
      list {
        shape {
          dim {
            size: 16
          }
        }
      }
    }
  }
}
node {
  name: "train/resunit_transition_1/bottleneck_0/batch_norm_0/moments/moments_1/variance"
  op: "Sub"
  input: "train/resunit_transition_1/bottleneck_0/batch_norm_0/moments/moments_1/Mul"
  input: "train/resunit_transition_1/bottleneck_0/batch_norm_0/moments/moments_1/Square"
  device: "/device:GPU:0"
  attr {
    key: "T"
    value {
      type: DT_FLOAT
    }
  }
  attr {
    key: "_output_shapes"
    value {
      list {
        shape {
          dim {
            size: 16
          }
        }
      }
    }
  }
}
node {
  name: "train/resunit_transition_1/bottleneck_0/batch_norm_0/moving_mean"
  op: "Variable"
  device: "/device:GPU:0"
  attr {
    key: "_output_shapes"
    value {
      list {
        shape {
          dim {
            size: 16
          }
        }
      }
    }
  }
  attr {
    key: "container"
    value {
      s: ""
    }
  }
  attr {
    key: "dtype"
    value {
      type: DT_FLOAT
    }
  }
  attr {
    key: "shape"
    value {
      shape {
        dim {
          size: 16
        }
      }
    }
  }
  attr {
    key: "shared_name"
    value {
      s: ""
    }
  }
}
node {
  name: "train/resunit_transition_1/bottleneck_0/batch_norm_0/moving_mean/Initializer/Const"
  op: "Const"
  device: "/device:GPU:0"
  attr {
    key: "_class"
    value {
      list {
        s: "loc:@train/resunit_transition_1/bottleneck_0/batch_norm_0/moving_mean"
      }
    }
  }
  attr {
    key: "_output_shapes"
    value {
      list {
        shape {
          dim {
            size: 16
          }
        }
      }
    }
  }
  attr {
    key: "dtype"
    value {
      type: DT_FLOAT
    }
  }
  attr {
    key: "value"
    value {
      tensor {
        dtype: DT_FLOAT
        tensor_shape {
          dim {
            size: 16
          }
        }
        float_val: 0.0
      }
    }
  }
}
node {
  name: "train/resunit_transition_1/bottleneck_0/batch_norm_0/moving_mean/Assign"
  op: "Assign"
  input: "train/resunit_transition_1/bottleneck_0/batch_norm_0/moving_mean"
  input: "train/resunit_transition_1/bottleneck_0/batch_norm_0/moving_mean/Initializer/Const"
  device: "/device:GPU:0"
  attr {
    key: "T"
    value {
      type: DT_FLOAT
    }
  }
  attr {
    key: "_class"
    value {
      list {
        s: "loc:@train/resunit_transition_1/bottleneck_0/batch_norm_0/moving_mean"
      }
    }
  }
  attr {
    key: "_output_shapes"
    value {
      list {
        shape {
          dim {
            size: 16
          }
        }
      }
    }
  }
  attr {
    key: "use_locking"
    value {
      b: true
    }
  }
  attr {
    key: "validate_shape"
    value {
      b: true
    }
  }
}
node {
  name: "train/resunit_transition_1/bottleneck_0/batch_norm_0/moving_mean/read"
  op: "Identity"
  input: "train/resunit_transition_1/bottleneck_0/batch_norm_0/moving_mean"
  device: "/device:GPU:0"
  attr {
    key: "T"
    value {
      type: DT_FLOAT
    }
  }
  attr {
    key: "_class"
    value {
      list {
        s: "loc:@train/resunit_transition_1/bottleneck_0/batch_norm_0/moving_mean"
      }
    }
  }
  attr {
    key: "_output_shapes"
    value {
      list {
        shape {
          dim {
            size: 16
          }
        }
      }
    }
  }
}
node {
  name: "train/resunit_transition_1/bottleneck_0/batch_norm_0/moving_var"
  op: "Variable"
  device: "/device:GPU:0"
  attr {
    key: "_output_shapes"
    value {
      list {
        shape {
          dim {
            size: 16
          }
        }
      }
    }
  }
  attr {
    key: "container"
    value {
      s: ""
    }
  }
  attr {
    key: "dtype"
    value {
      type: DT_FLOAT
    }
  }
  attr {
    key: "shape"
    value {
      shape {
        dim {
          size: 16
        }
      }
    }
  }
  attr {
    key: "shared_name"
    value {
      s: ""
    }
  }
}
node {
  name: "train/resunit_transition_1/bottleneck_0/batch_norm_0/moving_var/Initializer/Const"
  op: "Const"
  device: "/device:GPU:0"
  attr {
    key: "_class"
    value {
      list {
        s: "loc:@train/resunit_transition_1/bottleneck_0/batch_norm_0/moving_var"
      }
    }
  }
  attr {
    key: "_output_shapes"
    value {
      list {
        shape {
          dim {
            size: 16
          }
        }
      }
    }
  }
  attr {
    key: "dtype"
    value {
      type: DT_FLOAT
    }
  }
  attr {
    key: "value"
    value {
      tensor {
        dtype: DT_FLOAT
        tensor_shape {
          dim {
            size: 16
          }
        }
        float_val: 1.0
      }
    }
  }
}
node {
  name: "train/resunit_transition_1/bottleneck_0/batch_norm_0/moving_var/Assign"
  op: "Assign"
  input: "train/resunit_transition_1/bottleneck_0/batch_norm_0/moving_var"
  input: "train/resunit_transition_1/bottleneck_0/batch_norm_0/moving_var/Initializer/Const"
  device: "/device:GPU:0"
  attr {
    key: "T"
    value {
      type: DT_FLOAT
    }
  }
  attr {
    key: "_class"
    value {
      list {
        s: "loc:@train/resunit_transition_1/bottleneck_0/batch_norm_0/moving_var"
      }
    }
  }
  attr {
    key: "_output_shapes"
    value {
      list {
        shape {
          dim {
            size: 16
          }
        }
      }
    }
  }
  attr {
    key: "use_locking"
    value {
      b: true
    }
  }
  attr {
    key: "validate_shape"
    value {
      b: true
    }
  }
}
node {
  name: "train/resunit_transition_1/bottleneck_0/batch_norm_0/moving_var/read"
  op: "Identity"
  input: "train/resunit_transition_1/bottleneck_0/batch_norm_0/moving_var"
  device: "/device:GPU:0"
  attr {
    key: "T"
    value {
      type: DT_FLOAT
    }
  }
  attr {
    key: "_class"
    value {
      list {
        s: "loc:@train/resunit_transition_1/bottleneck_0/batch_norm_0/moving_var"
      }
    }
  }
  attr {
    key: "_output_shapes"
    value {
      list {
        shape {
          dim {
            size: 16
          }
        }
      }
    }
  }
}
node {
  name: "train/resunit_transition_1/bottleneck_0/batch_norm_0/AssignMovingAvg/decay"
  op: "Const"
  device: "/device:GPU:0"
  attr {
    key: "_class"
    value {
      list {
        s: "loc:@train/resunit_transition_1/bottleneck_0/batch_norm_0/moving_mean"
      }
    }
  }
  attr {
    key: "_output_shapes"
    value {
      list {
        shape {
        }
      }
    }
  }
  attr {
    key: "dtype"
    value {
      type: DT_FLOAT
    }
  }
  attr {
    key: "value"
    value {
      tensor {
        dtype: DT_FLOAT
        tensor_shape {
        }
        float_val: 0.15000000596046448
      }
    }
  }
}
node {
  name: "train/resunit_transition_1/bottleneck_0/batch_norm_0/AssignMovingAvg/train/resunit_transition_1/bottleneck_0/batch_norm_0/moving_mean/zeros"
  op: "Const"
  device: "/device:GPU:0"
  attr {
    key: "_class"
    value {
      list {
        s: "loc:@train/resunit_transition_1/bottleneck_0/batch_norm_0/moving_mean"
      }
    }
  }
  attr {
    key: "_output_shapes"
    value {
      list {
        shape {
          dim {
            size: 16
          }
        }
      }
    }
  }
  attr {
    key: "dtype"
    value {
      type: DT_FLOAT
    }
  }
  attr {
    key: "value"
    value {
      tensor {
        dtype: DT_FLOAT
        tensor_shape {
          dim {
            size: 16
          }
        }
        float_val: 0.0
      }
    }
  }
}
node {
  name: "train/resunit_transition_1/bottleneck_0/batch_norm_0/train/resunit_transition_1/bottleneck_0/batch_norm_0/moving_mean/biased"
  op: "Variable"
  device: "/device:GPU:0"
  attr {
    key: "_class"
    value {
      list {
        s: "loc:@train/resunit_transition_1/bottleneck_0/batch_norm_0/moving_mean"
      }
    }
  }
  attr {
    key: "_output_shapes"
    value {
      list {
        shape {
          dim {
            size: 16
          }
        }
      }
    }
  }
  attr {
    key: "container"
    value {
      s: ""
    }
  }
  attr {
    key: "dtype"
    value {
      type: DT_FLOAT
    }
  }
  attr {
    key: "shape"
    value {
      shape {
        dim {
          size: 16
        }
      }
    }
  }
  attr {
    key: "shared_name"
    value {
      s: ""
    }
  }
}
node {
  name: "train/resunit_transition_1/bottleneck_0/batch_norm_0/train/resunit_transition_1/bottleneck_0/batch_norm_0/moving_mean/biased/Assign"
  op: "Assign"
  input: "train/resunit_transition_1/bottleneck_0/batch_norm_0/train/resunit_transition_1/bottleneck_0/batch_norm_0/moving_mean/biased"
  input: "train/resunit_transition_1/bottleneck_0/batch_norm_0/AssignMovingAvg/train/resunit_transition_1/bottleneck_0/batch_norm_0/moving_mean/zeros"
  device: "/device:GPU:0"
  attr {
    key: "T"
    value {
      type: DT_FLOAT
    }
  }
  attr {
    key: "_class"
    value {
      list {
        s: "loc:@train/resunit_transition_1/bottleneck_0/batch_norm_0/moving_mean"
      }
    }
  }
  attr {
    key: "_output_shapes"
    value {
      list {
        shape {
          dim {
            size: 16
          }
        }
      }
    }
  }
  attr {
    key: "use_locking"
    value {
      b: true
    }
  }
  attr {
    key: "validate_shape"
    value {
      b: true
    }
  }
}
node {
  name: "train/resunit_transition_1/bottleneck_0/batch_norm_0/train/resunit_transition_1/bottleneck_0/batch_norm_0/moving_mean/biased/read"
  op: "Identity"
  input: "train/resunit_transition_1/bottleneck_0/batch_norm_0/train/resunit_transition_1/bottleneck_0/batch_norm_0/moving_mean/biased"
  device: "/device:GPU:0"
  attr {
    key: "T"
    value {
      type: DT_FLOAT
    }
  }
  attr {
    key: "_class"
    value {
      list {
        s: "loc:@train/resunit_transition_1/bottleneck_0/batch_norm_0/moving_mean"
      }
    }
  }
  attr {
    key: "_output_shapes"
    value {
      list {
        shape {
          dim {
            size: 16
          }
        }
      }
    }
  }
}
node {
  name: "train/resunit_transition_1/bottleneck_0/batch_norm_0/train/resunit_transition_1/bottleneck_0/batch_norm_0/moving_mean/local_step"
  op: "Variable"
  device: "/device:GPU:0"
  attr {
    key: "_class"
    value {
      list {
        s: "loc:@train/resunit_transition_1/bottleneck_0/batch_norm_0/moving_mean"
      }
    }
  }
  attr {
    key: "_output_shapes"
    value {
      list {
        shape {
        }
      }
    }
  }
  attr {
    key: "container"
    value {
      s: ""
    }
  }
  attr {
    key: "dtype"
    value {
      type: DT_FLOAT
    }
  }
  attr {
    key: "shape"
    value {
      shape {
      }
    }
  }
  attr {
    key: "shared_name"
    value {
      s: ""
    }
  }
}
node {
  name: "train/resunit_transition_1/bottleneck_0/batch_norm_0/train/resunit_transition_1/bottleneck_0/batch_norm_0/moving_mean/local_step/Initializer/Const"
  op: "Const"
  device: "/device:GPU:0"
  attr {
    key: "_class"
    value {
      list {
        s: "loc:@train/resunit_transition_1/bottleneck_0/batch_norm_0/moving_mean"
      }
    }
  }
  attr {
    key: "_output_shapes"
    value {
      list {
        shape {
        }
      }
    }
  }
  attr {
    key: "dtype"
    value {
      type: DT_FLOAT
    }
  }
  attr {
    key: "value"
    value {
      tensor {
        dtype: DT_FLOAT
        tensor_shape {
        }
        float_val: 1.0
      }
    }
  }
}
node {
  name: "train/resunit_transition_1/bottleneck_0/batch_norm_0/train/resunit_transition_1/bottleneck_0/batch_norm_0/moving_mean/local_step/Assign"
  op: "Assign"
  input: "train/resunit_transition_1/bottleneck_0/batch_norm_0/train/resunit_transition_1/bottleneck_0/batch_norm_0/moving_mean/local_step"
  input: "train/resunit_transition_1/bottleneck_0/batch_norm_0/train/resunit_transition_1/bottleneck_0/batch_norm_0/moving_mean/local_step/Initializer/Const"
  device: "/device:GPU:0"
  attr {
    key: "T"
    value {
      type: DT_FLOAT
    }
  }
  attr {
    key: "_class"
    value {
      list {
        s: "loc:@train/resunit_transition_1/bottleneck_0/batch_norm_0/moving_mean"
      }
    }
  }
  attr {
    key: "_output_shapes"
    value {
      list {
        shape {
        }
      }
    }
  }
  attr {
    key: "use_locking"
    value {
      b: true
    }
  }
  attr {
    key: "validate_shape"
    value {
      b: true
    }
  }
}
node {
  name: "train/resunit_transition_1/bottleneck_0/batch_norm_0/train/resunit_transition_1/bottleneck_0/batch_norm_0/moving_mean/local_step/read"
  op: "Identity"
  input: "train/resunit_transition_1/bottleneck_0/batch_norm_0/train/resunit_transition_1/bottleneck_0/batch_norm_0/moving_mean/local_step"
  device: "/device:GPU:0"
  attr {
    key: "T"
    value {
      type: DT_FLOAT
    }
  }
  attr {
    key: "_class"
    value {
      list {
        s: "loc:@train/resunit_transition_1/bottleneck_0/batch_norm_0/moving_mean"
      }
    }
  }
  attr {
    key: "_output_shapes"
    value {
      list {
        shape {
        }
      }
    }
  }
}
node {
  name: "train/resunit_transition_1/bottleneck_0/batch_norm_0/AssignMovingAvg/train/resunit_transition_1/bottleneck_0/batch_norm_0/moving_mean/sub"
  op: "Sub"
  input: "train/resunit_transition_1/bottleneck_0/batch_norm_0/train/resunit_transition_1/bottleneck_0/batch_norm_0/moving_mean/biased/read"
  input: "train/resunit_transition_1/bottleneck_0/batch_norm_0/moments/moments_1/mean"
  device: "/device:GPU:0"
  attr {
    key: "T"
    value {
      type: DT_FLOAT
    }
  }
  attr {
    key: "_class"
    value {
      list {
        s: "loc:@train/resunit_transition_1/bottleneck_0/batch_norm_0/moving_mean"
      }
    }
  }
  attr {
    key: "_output_shapes"
    value {
      list {
        shape {
          dim {
            size: 16
          }
        }
      }
    }
  }
}
node {
  name: "train/resunit_transition_1/bottleneck_0/batch_norm_0/AssignMovingAvg/train/resunit_transition_1/bottleneck_0/batch_norm_0/moving_mean/mul"
  op: "Mul"
  input: "train/resunit_transition_1/bottleneck_0/batch_norm_0/AssignMovingAvg/train/resunit_transition_1/bottleneck_0/batch_norm_0/moving_mean/sub"
  input: "train/resunit_transition_1/bottleneck_0/batch_norm_0/AssignMovingAvg/decay"
  device: "/device:GPU:0"
  attr {
    key: "T"
    value {
      type: DT_FLOAT
    }
  }
  attr {
    key: "_class"
    value {
      list {
        s: "loc:@train/resunit_transition_1/bottleneck_0/batch_norm_0/moving_mean"
      }
    }
  }
  attr {
    key: "_output_shapes"
    value {
      list {
        shape {
          dim {
            size: 16
          }
        }
      }
    }
  }
}
node {
  name: "train/resunit_transition_1/bottleneck_0/batch_norm_0/AssignMovingAvg/train/resunit_transition_1/bottleneck_0/batch_norm_0/moving_mean/train/resunit_transition_1/bottleneck_0/batch_norm_0/train/resunit_transition_1/bottleneck_0/batch_norm_0/moving_mean"
  op: "AssignSub"
  input: "train/resunit_transition_1/bottleneck_0/batch_norm_0/train/resunit_transition_1/bottleneck_0/batch_norm_0/moving_mean/biased"
  input: "train/resunit_transition_1/bottleneck_0/batch_norm_0/AssignMovingAvg/train/resunit_transition_1/bottleneck_0/batch_norm_0/moving_mean/mul"
  device: "/device:GPU:0"
  attr {
    key: "T"
    value {
      type: DT_FLOAT
    }
  }
  attr {
    key: "_class"
    value {
      list {
        s: "loc:@train/resunit_transition_1/bottleneck_0/batch_norm_0/moving_mean"
      }
    }
  }
  attr {
    key: "_output_shapes"
    value {
      list {
        shape {
          dim {
            size: 16
          }
        }
      }
    }
  }
  attr {
    key: "use_locking"
    value {
      b: false
    }
  }
}
node {
  name: "train/resunit_transition_1/bottleneck_0/batch_norm_0/AssignMovingAvg/train/resunit_transition_1/bottleneck_0/batch_norm_0/moving_mean/AssignAdd/value"
  op: "Const"
  device: "/device:GPU:0"
  attr {
    key: "_class"
    value {
      list {
        s: "loc:@train/resunit_transition_1/bottleneck_0/batch_norm_0/moving_mean"
      }
    }
  }
  attr {
    key: "_output_shapes"
    value {
      list {
        shape {
        }
      }
    }
  }
  attr {
    key: "dtype"
    value {
      type: DT_FLOAT
    }
  }
  attr {
    key: "value"
    value {
      tensor {
        dtype: DT_FLOAT
        tensor_shape {
        }
        float_val: 1.0
      }
    }
  }
}
node {
  name: "train/resunit_transition_1/bottleneck_0/batch_norm_0/AssignMovingAvg/train/resunit_transition_1/bottleneck_0/batch_norm_0/moving_mean/AssignAdd"
  op: "AssignAdd"
  input: "train/resunit_transition_1/bottleneck_0/batch_norm_0/train/resunit_transition_1/bottleneck_0/batch_norm_0/moving_mean/local_step"
  input: "train/resunit_transition_1/bottleneck_0/batch_norm_0/AssignMovingAvg/train/resunit_transition_1/bottleneck_0/batch_norm_0/moving_mean/AssignAdd/value"
  device: "/device:GPU:0"
  attr {
    key: "T"
    value {
      type: DT_FLOAT
    }
  }
  attr {
    key: "_class"
    value {
      list {
        s: "loc:@train/resunit_transition_1/bottleneck_0/batch_norm_0/moving_mean"
      }
    }
  }
  attr {
    key: "_output_shapes"
    value {
      list {
        shape {
        }
      }
    }
  }
  attr {
    key: "use_locking"
    value {
      b: false
    }
  }
}
node {
  name: "train/resunit_transition_1/bottleneck_0/batch_norm_0/AssignMovingAvg/train/resunit_transition_1/bottleneck_0/batch_norm_0/moving_mean/read"
  op: "Identity"
  input: "train/resunit_transition_1/bottleneck_0/batch_norm_0/train/resunit_transition_1/bottleneck_0/batch_norm_0/moving_mean/biased"
  input: "^train/resunit_transition_1/bottleneck_0/batch_norm_0/AssignMovingAvg/train/resunit_transition_1/bottleneck_0/batch_norm_0/moving_mean/train/resunit_transition_1/bottleneck_0/batch_norm_0/train/resunit_transition_1/bottleneck_0/batch_norm_0/moving_mean"
  input: "^train/resunit_transition_1/bottleneck_0/batch_norm_0/AssignMovingAvg/train/resunit_transition_1/bottleneck_0/batch_norm_0/moving_mean/AssignAdd"
  device: "/device:GPU:0"
  attr {
    key: "T"
    value {
      type: DT_FLOAT
    }
  }
  attr {
    key: "_class"
    value {
      list {
        s: "loc:@train/resunit_transition_1/bottleneck_0/batch_norm_0/moving_mean"
      }
    }
  }
  attr {
    key: "_output_shapes"
    value {
      list {
        shape {
          dim {
            size: 16
          }
        }
      }
    }
  }
}
node {
  name: "train/resunit_transition_1/bottleneck_0/batch_norm_0/AssignMovingAvg/train/resunit_transition_1/bottleneck_0/batch_norm_0/moving_mean/sub_1/x"
  op: "Const"
  input: "^train/resunit_transition_1/bottleneck_0/batch_norm_0/AssignMovingAvg/train/resunit_transition_1/bottleneck_0/batch_norm_0/moving_mean/train/resunit_transition_1/bottleneck_0/batch_norm_0/train/resunit_transition_1/bottleneck_0/batch_norm_0/moving_mean"
  input: "^train/resunit_transition_1/bottleneck_0/batch_norm_0/AssignMovingAvg/train/resunit_transition_1/bottleneck_0/batch_norm_0/moving_mean/AssignAdd"
  device: "/device:GPU:0"
  attr {
    key: "_class"
    value {
      list {
        s: "loc:@train/resunit_transition_1/bottleneck_0/batch_norm_0/moving_mean"
      }
    }
  }
  attr {
    key: "_output_shapes"
    value {
      list {
        shape {
        }
      }
    }
  }
  attr {
    key: "dtype"
    value {
      type: DT_FLOAT
    }
  }
  attr {
    key: "value"
    value {
      tensor {
        dtype: DT_FLOAT
        tensor_shape {
        }
        float_val: 1.0
      }
    }
  }
}
node {
  name: "train/resunit_transition_1/bottleneck_0/batch_norm_0/AssignMovingAvg/train/resunit_transition_1/bottleneck_0/batch_norm_0/moving_mean/sub_1"
  op: "Sub"
  input: "train/resunit_transition_1/bottleneck_0/batch_norm_0/AssignMovingAvg/train/resunit_transition_1/bottleneck_0/batch_norm_0/moving_mean/sub_1/x"
  input: "train/resunit_transition_1/bottleneck_0/batch_norm_0/AssignMovingAvg/decay"
  device: "/device:GPU:0"
  attr {
    key: "T"
    value {
      type: DT_FLOAT
    }
  }
  attr {
    key: "_class"
    value {
      list {
        s: "loc:@train/resunit_transition_1/bottleneck_0/batch_norm_0/moving_mean"
      }
    }
  }
  attr {
    key: "_output_shapes"
    value {
      list {
        shape {
        }
      }
    }
  }
}
node {
  name: "train/resunit_transition_1/bottleneck_0/batch_norm_0/AssignMovingAvg/train/resunit_transition_1/bottleneck_0/batch_norm_0/moving_mean/read_1"
  op: "Identity"
  input: "train/resunit_transition_1/bottleneck_0/batch_norm_0/train/resunit_transition_1/bottleneck_0/batch_norm_0/moving_mean/local_step"
  input: "^train/resunit_transition_1/bottleneck_0/batch_norm_0/AssignMovingAvg/train/resunit_transition_1/bottleneck_0/batch_norm_0/moving_mean/train/resunit_transition_1/bottleneck_0/batch_norm_0/train/resunit_transition_1/bottleneck_0/batch_norm_0/moving_mean"
  input: "^train/resunit_transition_1/bottleneck_0/batch_norm_0/AssignMovingAvg/train/resunit_transition_1/bottleneck_0/batch_norm_0/moving_mean/AssignAdd"
  device: "/device:GPU:0"
  attr {
    key: "T"
    value {
      type: DT_FLOAT
    }
  }
  attr {
    key: "_class"
    value {
      list {
        s: "loc:@train/resunit_transition_1/bottleneck_0/batch_norm_0/moving_mean"
      }
    }
  }
  attr {
    key: "_output_shapes"
    value {
      list {
        shape {
        }
      }
    }
  }
}
node {
  name: "train/resunit_transition_1/bottleneck_0/batch_norm_0/AssignMovingAvg/train/resunit_transition_1/bottleneck_0/batch_norm_0/moving_mean/Pow"
  op: "Pow"
  input: "train/resunit_transition_1/bottleneck_0/batch_norm_0/AssignMovingAvg/train/resunit_transition_1/bottleneck_0/batch_norm_0/moving_mean/sub_1"
  input: "train/resunit_transition_1/bottleneck_0/batch_norm_0/AssignMovingAvg/train/resunit_transition_1/bottleneck_0/batch_norm_0/moving_mean/read_1"
  device: "/device:GPU:0"
  attr {
    key: "T"
    value {
      type: DT_FLOAT
    }
  }
  attr {
    key: "_class"
    value {
      list {
        s: "loc:@train/resunit_transition_1/bottleneck_0/batch_norm_0/moving_mean"
      }
    }
  }
  attr {
    key: "_output_shapes"
    value {
      list {
        shape {
        }
      }
    }
  }
}
node {
  name: "train/resunit_transition_1/bottleneck_0/batch_norm_0/AssignMovingAvg/train/resunit_transition_1/bottleneck_0/batch_norm_0/moving_mean/sub_2/x"
  op: "Const"
  input: "^train/resunit_transition_1/bottleneck_0/batch_norm_0/AssignMovingAvg/train/resunit_transition_1/bottleneck_0/batch_norm_0/moving_mean/train/resunit_transition_1/bottleneck_0/batch_norm_0/train/resunit_transition_1/bottleneck_0/batch_norm_0/moving_mean"
  input: "^train/resunit_transition_1/bottleneck_0/batch_norm_0/AssignMovingAvg/train/resunit_transition_1/bottleneck_0/batch_norm_0/moving_mean/AssignAdd"
  device: "/device:GPU:0"
  attr {
    key: "_class"
    value {
      list {
        s: "loc:@train/resunit_transition_1/bottleneck_0/batch_norm_0/moving_mean"
      }
    }
  }
  attr {
    key: "_output_shapes"
    value {
      list {
        shape {
        }
      }
    }
  }
  attr {
    key: "dtype"
    value {
      type: DT_FLOAT
    }
  }
  attr {
    key: "value"
    value {
      tensor {
        dtype: DT_FLOAT
        tensor_shape {
        }
        float_val: 1.0
      }
    }
  }
}
node {
  name: "train/resunit_transition_1/bottleneck_0/batch_norm_0/AssignMovingAvg/train/resunit_transition_1/bottleneck_0/batch_norm_0/moving_mean/sub_2"
  op: "Sub"
  input: "train/resunit_transition_1/bottleneck_0/batch_norm_0/AssignMovingAvg/train/resunit_transition_1/bottleneck_0/batch_norm_0/moving_mean/sub_2/x"
  input: "train/resunit_transition_1/bottleneck_0/batch_norm_0/AssignMovingAvg/train/resunit_transition_1/bottleneck_0/batch_norm_0/moving_mean/Pow"
  device: "/device:GPU:0"
  attr {
    key: "T"
    value {
      type: DT_FLOAT
    }
  }
  attr {
    key: "_class"
    value {
      list {
        s: "loc:@train/resunit_transition_1/bottleneck_0/batch_norm_0/moving_mean"
      }
    }
  }
  attr {
    key: "_output_shapes"
    value {
      list {
        shape {
        }
      }
    }
  }
}
node {
  name: "train/resunit_transition_1/bottleneck_0/batch_norm_0/AssignMovingAvg/train/resunit_transition_1/bottleneck_0/batch_norm_0/moving_mean/truediv"
  op: "Div"
  input: "train/resunit_transition_1/bottleneck_0/batch_norm_0/AssignMovingAvg/train/resunit_transition_1/bottleneck_0/batch_norm_0/moving_mean/read"
  input: "train/resunit_transition_1/bottleneck_0/batch_norm_0/AssignMovingAvg/train/resunit_transition_1/bottleneck_0/batch_norm_0/moving_mean/sub_2"
  device: "/device:GPU:0"
  attr {
    key: "T"
    value {
      type: DT_FLOAT
    }
  }
  attr {
    key: "_class"
    value {
      list {
        s: "loc:@train/resunit_transition_1/bottleneck_0/batch_norm_0/moving_mean"
      }
    }
  }
  attr {
    key: "_output_shapes"
    value {
      list {
        shape {
          dim {
            size: 16
          }
        }
      }
    }
  }
}
node {
  name: "train/resunit_transition_1/bottleneck_0/batch_norm_0/AssignMovingAvg/train/resunit_transition_1/bottleneck_0/batch_norm_0/moving_mean/sub_3"
  op: "Sub"
  input: "train/resunit_transition_1/bottleneck_0/batch_norm_0/moving_mean/read"
  input: "train/resunit_transition_1/bottleneck_0/batch_norm_0/AssignMovingAvg/train/resunit_transition_1/bottleneck_0/batch_norm_0/moving_mean/truediv"
  device: "/device:GPU:0"
  attr {
    key: "T"
    value {
      type: DT_FLOAT
    }
  }
  attr {
    key: "_class"
    value {
      list {
        s: "loc:@train/resunit_transition_1/bottleneck_0/batch_norm_0/moving_mean"
      }
    }
  }
  attr {
    key: "_output_shapes"
    value {
      list {
        shape {
          dim {
            size: 16
          }
        }
      }
    }
  }
}
node {
  name: "train/resunit_transition_1/bottleneck_0/batch_norm_0/AssignMovingAvg"
  op: "AssignSub"
  input: "train/resunit_transition_1/bottleneck_0/batch_norm_0/moving_mean"
  input: "train/resunit_transition_1/bottleneck_0/batch_norm_0/AssignMovingAvg/train/resunit_transition_1/bottleneck_0/batch_norm_0/moving_mean/sub_3"
  device: "/device:GPU:0"
  attr {
    key: "T"
    value {
      type: DT_FLOAT
    }
  }
  attr {
    key: "_class"
    value {
      list {
        s: "loc:@train/resunit_transition_1/bottleneck_0/batch_norm_0/moving_mean"
      }
    }
  }
  attr {
    key: "_output_shapes"
    value {
      list {
        shape {
          dim {
            size: 16
          }
        }
      }
    }
  }
  attr {
    key: "use_locking"
    value {
      b: false
    }
  }
}
node {
  name: "train/resunit_transition_1/bottleneck_0/batch_norm_0/AssignMovingAvg_1/decay"
  op: "Const"
  device: "/device:GPU:0"
  attr {
    key: "_class"
    value {
      list {
        s: "loc:@train/resunit_transition_1/bottleneck_0/batch_norm_0/moving_var"
      }
    }
  }
  attr {
    key: "_output_shapes"
    value {
      list {
        shape {
        }
      }
    }
  }
  attr {
    key: "dtype"
    value {
      type: DT_FLOAT
    }
  }
  attr {
    key: "value"
    value {
      tensor {
        dtype: DT_FLOAT
        tensor_shape {
        }
        float_val: 0.15000000596046448
      }
    }
  }
}
node {
  name: "train/resunit_transition_1/bottleneck_0/batch_norm_0/AssignMovingAvg_1/train/resunit_transition_1/bottleneck_0/batch_norm_0/moving_var/zeros"
  op: "Const"
  device: "/device:GPU:0"
  attr {
    key: "_class"
    value {
      list {
        s: "loc:@train/resunit_transition_1/bottleneck_0/batch_norm_0/moving_var"
      }
    }
  }
  attr {
    key: "_output_shapes"
    value {
      list {
        shape {
          dim {
            size: 16
          }
        }
      }
    }
  }
  attr {
    key: "dtype"
    value {
      type: DT_FLOAT
    }
  }
  attr {
    key: "value"
    value {
      tensor {
        dtype: DT_FLOAT
        tensor_shape {
          dim {
            size: 16
          }
        }
        float_val: 0.0
      }
    }
  }
}
node {
  name: "train/resunit_transition_1/bottleneck_0/batch_norm_0/train/resunit_transition_1/bottleneck_0/batch_norm_0/moving_var/biased"
  op: "Variable"
  device: "/device:GPU:0"
  attr {
    key: "_class"
    value {
      list {
        s: "loc:@train/resunit_transition_1/bottleneck_0/batch_norm_0/moving_var"
      }
    }
  }
  attr {
    key: "_output_shapes"
    value {
      list {
        shape {
          dim {
            size: 16
          }
        }
      }
    }
  }
  attr {
    key: "container"
    value {
      s: ""
    }
  }
  attr {
    key: "dtype"
    value {
      type: DT_FLOAT
    }
  }
  attr {
    key: "shape"
    value {
      shape {
        dim {
          size: 16
        }
      }
    }
  }
  attr {
    key: "shared_name"
    value {
      s: ""
    }
  }
}
node {
  name: "train/resunit_transition_1/bottleneck_0/batch_norm_0/train/resunit_transition_1/bottleneck_0/batch_norm_0/moving_var/biased/Assign"
  op: "Assign"
  input: "train/resunit_transition_1/bottleneck_0/batch_norm_0/train/resunit_transition_1/bottleneck_0/batch_norm_0/moving_var/biased"
  input: "train/resunit_transition_1/bottleneck_0/batch_norm_0/AssignMovingAvg_1/train/resunit_transition_1/bottleneck_0/batch_norm_0/moving_var/zeros"
  device: "/device:GPU:0"
  attr {
    key: "T"
    value {
      type: DT_FLOAT
    }
  }
  attr {
    key: "_class"
    value {
      list {
        s: "loc:@train/resunit_transition_1/bottleneck_0/batch_norm_0/moving_var"
      }
    }
  }
  attr {
    key: "_output_shapes"
    value {
      list {
        shape {
          dim {
            size: 16
          }
        }
      }
    }
  }
  attr {
    key: "use_locking"
    value {
      b: true
    }
  }
  attr {
    key: "validate_shape"
    value {
      b: true
    }
  }
}
node {
  name: "train/resunit_transition_1/bottleneck_0/batch_norm_0/train/resunit_transition_1/bottleneck_0/batch_norm_0/moving_var/biased/read"
  op: "Identity"
  input: "train/resunit_transition_1/bottleneck_0/batch_norm_0/train/resunit_transition_1/bottleneck_0/batch_norm_0/moving_var/biased"
  device: "/device:GPU:0"
  attr {
    key: "T"
    value {
      type: DT_FLOAT
    }
  }
  attr {
    key: "_class"
    value {
      list {
        s: "loc:@train/resunit_transition_1/bottleneck_0/batch_norm_0/moving_var"
      }
    }
  }
  attr {
    key: "_output_shapes"
    value {
      list {
        shape {
          dim {
            size: 16
          }
        }
      }
    }
  }
}
node {
  name: "train/resunit_transition_1/bottleneck_0/batch_norm_0/train/resunit_transition_1/bottleneck_0/batch_norm_0/moving_var/local_step"
  op: "Variable"
  device: "/device:GPU:0"
  attr {
    key: "_class"
    value {
      list {
        s: "loc:@train/resunit_transition_1/bottleneck_0/batch_norm_0/moving_var"
      }
    }
  }
  attr {
    key: "_output_shapes"
    value {
      list {
        shape {
        }
      }
    }
  }
  attr {
    key: "container"
    value {
      s: ""
    }
  }
  attr {
    key: "dtype"
    value {
      type: DT_FLOAT
    }
  }
  attr {
    key: "shape"
    value {
      shape {
      }
    }
  }
  attr {
    key: "shared_name"
    value {
      s: ""
    }
  }
}
node {
  name: "train/resunit_transition_1/bottleneck_0/batch_norm_0/train/resunit_transition_1/bottleneck_0/batch_norm_0/moving_var/local_step/Initializer/Const"
  op: "Const"
  device: "/device:GPU:0"
  attr {
    key: "_class"
    value {
      list {
        s: "loc:@train/resunit_transition_1/bottleneck_0/batch_norm_0/moving_var"
      }
    }
  }
  attr {
    key: "_output_shapes"
    value {
      list {
        shape {
        }
      }
    }
  }
  attr {
    key: "dtype"
    value {
      type: DT_FLOAT
    }
  }
  attr {
    key: "value"
    value {
      tensor {
        dtype: DT_FLOAT
        tensor_shape {
        }
        float_val: 1.0
      }
    }
  }
}
node {
  name: "train/resunit_transition_1/bottleneck_0/batch_norm_0/train/resunit_transition_1/bottleneck_0/batch_norm_0/moving_var/local_step/Assign"
  op: "Assign"
  input: "train/resunit_transition_1/bottleneck_0/batch_norm_0/train/resunit_transition_1/bottleneck_0/batch_norm_0/moving_var/local_step"
  input: "train/resunit_transition_1/bottleneck_0/batch_norm_0/train/resunit_transition_1/bottleneck_0/batch_norm_0/moving_var/local_step/Initializer/Const"
  device: "/device:GPU:0"
  attr {
    key: "T"
    value {
      type: DT_FLOAT
    }
  }
  attr {
    key: "_class"
    value {
      list {
        s: "loc:@train/resunit_transition_1/bottleneck_0/batch_norm_0/moving_var"
      }
    }
  }
  attr {
    key: "_output_shapes"
    value {
      list {
        shape {
        }
      }
    }
  }
  attr {
    key: "use_locking"
    value {
      b: true
    }
  }
  attr {
    key: "validate_shape"
    value {
      b: true
    }
  }
}
node {
  name: "train/resunit_transition_1/bottleneck_0/batch_norm_0/train/resunit_transition_1/bottleneck_0/batch_norm_0/moving_var/local_step/read"
  op: "Identity"
  input: "train/resunit_transition_1/bottleneck_0/batch_norm_0/train/resunit_transition_1/bottleneck_0/batch_norm_0/moving_var/local_step"
  device: "/device:GPU:0"
  attr {
    key: "T"
    value {
      type: DT_FLOAT
    }
  }
  attr {
    key: "_class"
    value {
      list {
        s: "loc:@train/resunit_transition_1/bottleneck_0/batch_norm_0/moving_var"
      }
    }
  }
  attr {
    key: "_output_shapes"
    value {
      list {
        shape {
        }
      }
    }
  }
}
node {
  name: "train/resunit_transition_1/bottleneck_0/batch_norm_0/AssignMovingAvg_1/train/resunit_transition_1/bottleneck_0/batch_norm_0/moving_var/sub"
  op: "Sub"
  input: "train/resunit_transition_1/bottleneck_0/batch_norm_0/train/resunit_transition_1/bottleneck_0/batch_norm_0/moving_var/biased/read"
  input: "train/resunit_transition_1/bottleneck_0/batch_norm_0/moments/moments_1/variance"
  device: "/device:GPU:0"
  attr {
    key: "T"
    value {
      type: DT_FLOAT
    }
  }
  attr {
    key: "_class"
    value {
      list {
        s: "loc:@train/resunit_transition_1/bottleneck_0/batch_norm_0/moving_var"
      }
    }
  }
  attr {
    key: "_output_shapes"
    value {
      list {
        shape {
          dim {
            size: 16
          }
        }
      }
    }
  }
}
node {
  name: "train/resunit_transition_1/bottleneck_0/batch_norm_0/AssignMovingAvg_1/train/resunit_transition_1/bottleneck_0/batch_norm_0/moving_var/mul"
  op: "Mul"
  input: "train/resunit_transition_1/bottleneck_0/batch_norm_0/AssignMovingAvg_1/train/resunit_transition_1/bottleneck_0/batch_norm_0/moving_var/sub"
  input: "train/resunit_transition_1/bottleneck_0/batch_norm_0/AssignMovingAvg_1/decay"
  device: "/device:GPU:0"
  attr {
    key: "T"
    value {
      type: DT_FLOAT
    }
  }
  attr {
    key: "_class"
    value {
      list {
        s: "loc:@train/resunit_transition_1/bottleneck_0/batch_norm_0/moving_var"
      }
    }
  }
  attr {
    key: "_output_shapes"
    value {
      list {
        shape {
          dim {
            size: 16
          }
        }
      }
    }
  }
}
node {
  name: "train/resunit_transition_1/bottleneck_0/batch_norm_0/AssignMovingAvg_1/train/resunit_transition_1/bottleneck_0/batch_norm_0/moving_var/train/resunit_transition_1/bottleneck_0/batch_norm_0/train/resunit_transition_1/bottleneck_0/batch_norm_0/moving_var"
  op: "AssignSub"
  input: "train/resunit_transition_1/bottleneck_0/batch_norm_0/train/resunit_transition_1/bottleneck_0/batch_norm_0/moving_var/biased"
  input: "train/resunit_transition_1/bottleneck_0/batch_norm_0/AssignMovingAvg_1/train/resunit_transition_1/bottleneck_0/batch_norm_0/moving_var/mul"
  device: "/device:GPU:0"
  attr {
    key: "T"
    value {
      type: DT_FLOAT
    }
  }
  attr {
    key: "_class"
    value {
      list {
        s: "loc:@train/resunit_transition_1/bottleneck_0/batch_norm_0/moving_var"
      }
    }
  }
  attr {
    key: "_output_shapes"
    value {
      list {
        shape {
          dim {
            size: 16
          }
        }
      }
    }
  }
  attr {
    key: "use_locking"
    value {
      b: false
    }
  }
}
node {
  name: "train/resunit_transition_1/bottleneck_0/batch_norm_0/AssignMovingAvg_1/train/resunit_transition_1/bottleneck_0/batch_norm_0/moving_var/AssignAdd/value"
  op: "Const"
  device: "/device:GPU:0"
  attr {
    key: "_class"
    value {
      list {
        s: "loc:@train/resunit_transition_1/bottleneck_0/batch_norm_0/moving_var"
      }
    }
  }
  attr {
    key: "_output_shapes"
    value {
      list {
        shape {
        }
      }
    }
  }
  attr {
    key: "dtype"
    value {
      type: DT_FLOAT
    }
  }
  attr {
    key: "value"
    value {
      tensor {
        dtype: DT_FLOAT
        tensor_shape {
        }
        float_val: 1.0
      }
    }
  }
}
node {
  name: "train/resunit_transition_1/bottleneck_0/batch_norm_0/AssignMovingAvg_1/train/resunit_transition_1/bottleneck_0/batch_norm_0/moving_var/AssignAdd"
  op: "AssignAdd"
  input: "train/resunit_transition_1/bottleneck_0/batch_norm_0/train/resunit_transition_1/bottleneck_0/batch_norm_0/moving_var/local_step"
  input: "train/resunit_transition_1/bottleneck_0/batch_norm_0/AssignMovingAvg_1/train/resunit_transition_1/bottleneck_0/batch_norm_0/moving_var/AssignAdd/value"
  device: "/device:GPU:0"
  attr {
    key: "T"
    value {
      type: DT_FLOAT
    }
  }
  attr {
    key: "_class"
    value {
      list {
        s: "loc:@train/resunit_transition_1/bottleneck_0/batch_norm_0/moving_var"
      }
    }
  }
  attr {
    key: "_output_shapes"
    value {
      list {
        shape {
        }
      }
    }
  }
  attr {
    key: "use_locking"
    value {
      b: false
    }
  }
}
node {
  name: "train/resunit_transition_1/bottleneck_0/batch_norm_0/AssignMovingAvg_1/train/resunit_transition_1/bottleneck_0/batch_norm_0/moving_var/read"
  op: "Identity"
  input: "train/resunit_transition_1/bottleneck_0/batch_norm_0/train/resunit_transition_1/bottleneck_0/batch_norm_0/moving_var/biased"
  input: "^train/resunit_transition_1/bottleneck_0/batch_norm_0/AssignMovingAvg_1/train/resunit_transition_1/bottleneck_0/batch_norm_0/moving_var/train/resunit_transition_1/bottleneck_0/batch_norm_0/train/resunit_transition_1/bottleneck_0/batch_norm_0/moving_var"
  input: "^train/resunit_transition_1/bottleneck_0/batch_norm_0/AssignMovingAvg_1/train/resunit_transition_1/bottleneck_0/batch_norm_0/moving_var/AssignAdd"
  device: "/device:GPU:0"
  attr {
    key: "T"
    value {
      type: DT_FLOAT
    }
  }
  attr {
    key: "_class"
    value {
      list {
        s: "loc:@train/resunit_transition_1/bottleneck_0/batch_norm_0/moving_var"
      }
    }
  }
  attr {
    key: "_output_shapes"
    value {
      list {
        shape {
          dim {
            size: 16
          }
        }
      }
    }
  }
}
node {
  name: "train/resunit_transition_1/bottleneck_0/batch_norm_0/AssignMovingAvg_1/train/resunit_transition_1/bottleneck_0/batch_norm_0/moving_var/sub_1/x"
  op: "Const"
  input: "^train/resunit_transition_1/bottleneck_0/batch_norm_0/AssignMovingAvg_1/train/resunit_transition_1/bottleneck_0/batch_norm_0/moving_var/train/resunit_transition_1/bottleneck_0/batch_norm_0/train/resunit_transition_1/bottleneck_0/batch_norm_0/moving_var"
  input: "^train/resunit_transition_1/bottleneck_0/batch_norm_0/AssignMovingAvg_1/train/resunit_transition_1/bottleneck_0/batch_norm_0/moving_var/AssignAdd"
  device: "/device:GPU:0"
  attr {
    key: "_class"
    value {
      list {
        s: "loc:@train/resunit_transition_1/bottleneck_0/batch_norm_0/moving_var"
      }
    }
  }
  attr {
    key: "_output_shapes"
    value {
      list {
        shape {
        }
      }
    }
  }
  attr {
    key: "dtype"
    value {
      type: DT_FLOAT
    }
  }
  attr {
    key: "value"
    value {
      tensor {
        dtype: DT_FLOAT
        tensor_shape {
        }
        float_val: 1.0
      }
    }
  }
}
node {
  name: "train/resunit_transition_1/bottleneck_0/batch_norm_0/AssignMovingAvg_1/train/resunit_transition_1/bottleneck_0/batch_norm_0/moving_var/sub_1"
  op: "Sub"
  input: "train/resunit_transition_1/bottleneck_0/batch_norm_0/AssignMovingAvg_1/train/resunit_transition_1/bottleneck_0/batch_norm_0/moving_var/sub_1/x"
  input: "train/resunit_transition_1/bottleneck_0/batch_norm_0/AssignMovingAvg_1/decay"
  device: "/device:GPU:0"
  attr {
    key: "T"
    value {
      type: DT_FLOAT
    }
  }
  attr {
    key: "_class"
    value {
      list {
        s: "loc:@train/resunit_transition_1/bottleneck_0/batch_norm_0/moving_var"
      }
    }
  }
  attr {
    key: "_output_shapes"
    value {
      list {
        shape {
        }
      }
    }
  }
}
node {
  name: "train/resunit_transition_1/bottleneck_0/batch_norm_0/AssignMovingAvg_1/train/resunit_transition_1/bottleneck_0/batch_norm_0/moving_var/read_1"
  op: "Identity"
  input: "train/resunit_transition_1/bottleneck_0/batch_norm_0/train/resunit_transition_1/bottleneck_0/batch_norm_0/moving_var/local_step"
  input: "^train/resunit_transition_1/bottleneck_0/batch_norm_0/AssignMovingAvg_1/train/resunit_transition_1/bottleneck_0/batch_norm_0/moving_var/train/resunit_transition_1/bottleneck_0/batch_norm_0/train/resunit_transition_1/bottleneck_0/batch_norm_0/moving_var"
  input: "^train/resunit_transition_1/bottleneck_0/batch_norm_0/AssignMovingAvg_1/train/resunit_transition_1/bottleneck_0/batch_norm_0/moving_var/AssignAdd"
  device: "/device:GPU:0"
  attr {
    key: "T"
    value {
      type: DT_FLOAT
    }
  }
  attr {
    key: "_class"
    value {
      list {
        s: "loc:@train/resunit_transition_1/bottleneck_0/batch_norm_0/moving_var"
      }
    }
  }
  attr {
    key: "_output_shapes"
    value {
      list {
        shape {
        }
      }
    }
  }
}
node {
  name: "train/resunit_transition_1/bottleneck_0/batch_norm_0/AssignMovingAvg_1/train/resunit_transition_1/bottleneck_0/batch_norm_0/moving_var/Pow"
  op: "Pow"
  input: "train/resunit_transition_1/bottleneck_0/batch_norm_0/AssignMovingAvg_1/train/resunit_transition_1/bottleneck_0/batch_norm_0/moving_var/sub_1"
  input: "train/resunit_transition_1/bottleneck_0/batch_norm_0/AssignMovingAvg_1/train/resunit_transition_1/bottleneck_0/batch_norm_0/moving_var/read_1"
  device: "/device:GPU:0"
  attr {
    key: "T"
    value {
      type: DT_FLOAT
    }
  }
  attr {
    key: "_class"
    value {
      list {
        s: "loc:@train/resunit_transition_1/bottleneck_0/batch_norm_0/moving_var"
      }
    }
  }
  attr {
    key: "_output_shapes"
    value {
      list {
        shape {
        }
      }
    }
  }
}
node {
  name: "train/resunit_transition_1/bottleneck_0/batch_norm_0/AssignMovingAvg_1/train/resunit_transition_1/bottleneck_0/batch_norm_0/moving_var/sub_2/x"
  op: "Const"
  input: "^train/resunit_transition_1/bottleneck_0/batch_norm_0/AssignMovingAvg_1/train/resunit_transition_1/bottleneck_0/batch_norm_0/moving_var/train/resunit_transition_1/bottleneck_0/batch_norm_0/train/resunit_transition_1/bottleneck_0/batch_norm_0/moving_var"
  input: "^train/resunit_transition_1/bottleneck_0/batch_norm_0/AssignMovingAvg_1/train/resunit_transition_1/bottleneck_0/batch_norm_0/moving_var/AssignAdd"
  device: "/device:GPU:0"
  attr {
    key: "_class"
    value {
      list {
        s: "loc:@train/resunit_transition_1/bottleneck_0/batch_norm_0/moving_var"
      }
    }
  }
  attr {
    key: "_output_shapes"
    value {
      list {
        shape {
        }
      }
    }
  }
  attr {
    key: "dtype"
    value {
      type: DT_FLOAT
    }
  }
  attr {
    key: "value"
    value {
      tensor {
        dtype: DT_FLOAT
        tensor_shape {
        }
        float_val: 1.0
      }
    }
  }
}
node {
  name: "train/resunit_transition_1/bottleneck_0/batch_norm_0/AssignMovingAvg_1/train/resunit_transition_1/bottleneck_0/batch_norm_0/moving_var/sub_2"
  op: "Sub"
  input: "train/resunit_transition_1/bottleneck_0/batch_norm_0/AssignMovingAvg_1/train/resunit_transition_1/bottleneck_0/batch_norm_0/moving_var/sub_2/x"
  input: "train/resunit_transition_1/bottleneck_0/batch_norm_0/AssignMovingAvg_1/train/resunit_transition_1/bottleneck_0/batch_norm_0/moving_var/Pow"
  device: "/device:GPU:0"
  attr {
    key: "T"
    value {
      type: DT_FLOAT
    }
  }
  attr {
    key: "_class"
    value {
      list {
        s: "loc:@train/resunit_transition_1/bottleneck_0/batch_norm_0/moving_var"
      }
    }
  }
  attr {
    key: "_output_shapes"
    value {
      list {
        shape {
        }
      }
    }
  }
}
node {
  name: "train/resunit_transition_1/bottleneck_0/batch_norm_0/AssignMovingAvg_1/train/resunit_transition_1/bottleneck_0/batch_norm_0/moving_var/truediv"
  op: "Div"
  input: "train/resunit_transition_1/bottleneck_0/batch_norm_0/AssignMovingAvg_1/train/resunit_transition_1/bottleneck_0/batch_norm_0/moving_var/read"
  input: "train/resunit_transition_1/bottleneck_0/batch_norm_0/AssignMovingAvg_1/train/resunit_transition_1/bottleneck_0/batch_norm_0/moving_var/sub_2"
  device: "/device:GPU:0"
  attr {
    key: "T"
    value {
      type: DT_FLOAT
    }
  }
  attr {
    key: "_class"
    value {
      list {
        s: "loc:@train/resunit_transition_1/bottleneck_0/batch_norm_0/moving_var"
      }
    }
  }
  attr {
    key: "_output_shapes"
    value {
      list {
        shape {
          dim {
            size: 16
          }
        }
      }
    }
  }
}
node {
  name: "train/resunit_transition_1/bottleneck_0/batch_norm_0/AssignMovingAvg_1/train/resunit_transition_1/bottleneck_0/batch_norm_0/moving_var/sub_3"
  op: "Sub"
  input: "train/resunit_transition_1/bottleneck_0/batch_norm_0/moving_var/read"
  input: "train/resunit_transition_1/bottleneck_0/batch_norm_0/AssignMovingAvg_1/train/resunit_transition_1/bottleneck_0/batch_norm_0/moving_var/truediv"
  device: "/device:GPU:0"
  attr {
    key: "T"
    value {
      type: DT_FLOAT
    }
  }
  attr {
    key: "_class"
    value {
      list {
        s: "loc:@train/resunit_transition_1/bottleneck_0/batch_norm_0/moving_var"
      }
    }
  }
  attr {
    key: "_output_shapes"
    value {
      list {
        shape {
          dim {
            size: 16
          }
        }
      }
    }
  }
}
node {
  name: "train/resunit_transition_1/bottleneck_0/batch_norm_0/AssignMovingAvg_1"
  op: "AssignSub"
  input: "train/resunit_transition_1/bottleneck_0/batch_norm_0/moving_var"
  input: "train/resunit_transition_1/bottleneck_0/batch_norm_0/AssignMovingAvg_1/train/resunit_transition_1/bottleneck_0/batch_norm_0/moving_var/sub_3"
  device: "/device:GPU:0"
  attr {
    key: "T"
    value {
      type: DT_FLOAT
    }
  }
  attr {
    key: "_class"
    value {
      list {
        s: "loc:@train/resunit_transition_1/bottleneck_0/batch_norm_0/moving_var"
      }
    }
  }
  attr {
    key: "_output_shapes"
    value {
      list {
        shape {
          dim {
            size: 16
          }
        }
      }
    }
  }
  attr {
    key: "use_locking"
    value {
      b: false
    }
  }
}
node {
  name: "train/resunit_transition_1/bottleneck_0/batch_norm_0/batchnorm/add/y"
  op: "Const"
  device: "/device:GPU:0"
  attr {
    key: "_output_shapes"
    value {
      list {
        shape {
        }
      }
    }
  }
  attr {
    key: "dtype"
    value {
      type: DT_FLOAT
    }
  }
  attr {
    key: "value"
    value {
      tensor {
        dtype: DT_FLOAT
        tensor_shape {
        }
        float_val: 9.999999747378752e-06
      }
    }
  }
}
node {
  name: "train/resunit_transition_1/bottleneck_0/batch_norm_0/batchnorm/add"
  op: "Add"
  input: "train/resunit_transition_1/bottleneck_0/batch_norm_0/moments/moments_1/variance"
  input: "train/resunit_transition_1/bottleneck_0/batch_norm_0/batchnorm/add/y"
  device: "/device:GPU:0"
  attr {
    key: "T"
    value {
      type: DT_FLOAT
    }
  }
  attr {
    key: "_output_shapes"
    value {
      list {
        shape {
          dim {
            size: 16
          }
        }
      }
    }
  }
}
node {
  name: "train/resunit_transition_1/bottleneck_0/batch_norm_0/batchnorm/Rsqrt"
  op: "Rsqrt"
  input: "train/resunit_transition_1/bottleneck_0/batch_norm_0/batchnorm/add"
  device: "/device:GPU:0"
  attr {
    key: "T"
    value {
      type: DT_FLOAT
    }
  }
  attr {
    key: "_output_shapes"
    value {
      list {
        shape {
          dim {
            size: 16
          }
        }
      }
    }
  }
}
node {
  name: "train/resunit_transition_1/bottleneck_0/batch_norm_0/batchnorm/mul"
  op: "Mul"
  input: "train/resunit_transition_1/bottleneck_0/batch_norm_0/batchnorm/Rsqrt"
  input: "train/resunit_transition_1/bottleneck_0/batch_norm_0/gamma/read"
  device: "/device:GPU:0"
  attr {
    key: "T"
    value {
      type: DT_FLOAT
    }
  }
  attr {
    key: "_output_shapes"
    value {
      list {
        shape {
          dim {
            size: 16
          }
        }
      }
    }
  }
}
node {
  name: "train/resunit_transition_1/bottleneck_0/batch_norm_0/batchnorm/mul_1"
  op: "Mul"
  input: "train/init/conv3x3/Conv2D"
  input: "train/resunit_transition_1/bottleneck_0/batch_norm_0/batchnorm/mul"
  device: "/device:GPU:0"
  attr {
    key: "T"
    value {
      type: DT_FLOAT
    }
  }
  attr {
    key: "_output_shapes"
    value {
      list {
        shape {
          dim {
            size: 128
          }
          dim {
            size: 32
          }
          dim {
            size: 32
          }
          dim {
            size: 16
          }
        }
      }
    }
  }
}
node {
  name: "train/resunit_transition_1/bottleneck_0/batch_norm_0/batchnorm/mul_2"
  op: "Mul"
  input: "train/resunit_transition_1/bottleneck_0/batch_norm_0/moments/moments_1/mean"
  input: "train/resunit_transition_1/bottleneck_0/batch_norm_0/batchnorm/mul"
  device: "/device:GPU:0"
  attr {
    key: "T"
    value {
      type: DT_FLOAT
    }
  }
  attr {
    key: "_output_shapes"
    value {
      list {
        shape {
          dim {
            size: 16
          }
        }
      }
    }
  }
}
node {
  name: "train/resunit_transition_1/bottleneck_0/batch_norm_0/batchnorm/sub"
  op: "Sub"
  input: "train/resunit_transition_1/bottleneck_0/batch_norm_0/beta/read"
  input: "train/resunit_transition_1/bottleneck_0/batch_norm_0/batchnorm/mul_2"
  device: "/device:GPU:0"
  attr {
    key: "T"
    value {
      type: DT_FLOAT
    }
  }
  attr {
    key: "_output_shapes"
    value {
      list {
        shape {
          dim {
            size: 16
          }
        }
      }
    }
  }
}
node {
  name: "train/resunit_transition_1/bottleneck_0/batch_norm_0/batchnorm/add_1"
  op: "Add"
  input: "train/resunit_transition_1/bottleneck_0/batch_norm_0/batchnorm/mul_1"
  input: "train/resunit_transition_1/bottleneck_0/batch_norm_0/batchnorm/sub"
  device: "/device:GPU:0"
  attr {
    key: "T"
    value {
      type: DT_FLOAT
    }
  }
  attr {
    key: "_output_shapes"
    value {
      list {
        shape {
          dim {
            size: 128
          }
          dim {
            size: 32
          }
          dim {
            size: 32
          }
          dim {
            size: 16
          }
        }
      }
    }
  }
}
node {
  name: "train/resunit_transition_1/bottleneck_0/activate_0"
  op: "Relu"
  input: "train/resunit_transition_1/bottleneck_0/batch_norm_0/batchnorm/add_1"
  device: "/device:GPU:0"
  attr {
    key: "T"
    value {
      type: DT_FLOAT
    }
  }
  attr {
    key: "_output_shapes"
    value {
      list {
        shape {
          dim {
            size: 128
          }
          dim {
            size: 32
          }
          dim {
            size: 32
          }
          dim {
            size: 16
          }
        }
      }
    }
  }
}
node {
  name: "train/resunit_transition_1/bottleneck_0/conv_0_1x1/weights"
  op: "Variable"
  device: "/device:GPU:0"
  attr {
    key: "_output_shapes"
    value {
      list {
        shape {
          dim {
            size: 1
          }
          dim {
            size: 1
          }
          dim {
            size: 16
          }
          dim {
            size: 16
          }
        }
      }
    }
  }
  attr {
    key: "container"
    value {
      s: ""
    }
  }
  attr {
    key: "dtype"
    value {
      type: DT_FLOAT
    }
  }
  attr {
    key: "shape"
    value {
      shape {
        dim {
          size: 1
        }
        dim {
          size: 1
        }
        dim {
          size: 16
        }
        dim {
          size: 16
        }
      }
    }
  }
  attr {
    key: "shared_name"
    value {
      s: ""
    }
  }
}
node {
  name: "train/resunit_transition_1/bottleneck_0/conv_0_1x1/weights/Initializer/random_normal/shape"
  op: "Const"
  device: "/device:GPU:0"
  attr {
    key: "_class"
    value {
      list {
        s: "loc:@train/resunit_transition_1/bottleneck_0/conv_0_1x1/weights"
      }
    }
  }
  attr {
    key: "_output_shapes"
    value {
      list {
        shape {
          dim {
            size: 4
          }
        }
      }
    }
  }
  attr {
    key: "dtype"
    value {
      type: DT_INT32
    }
  }
  attr {
    key: "value"
    value {
      tensor {
        dtype: DT_INT32
        tensor_shape {
          dim {
            size: 4
          }
        }
        tensor_content: "\001\000\000\000\001\000\000\000\020\000\000\000\020\000\000\000"
      }
    }
  }
}
node {
  name: "train/resunit_transition_1/bottleneck_0/conv_0_1x1/weights/Initializer/random_normal/mean"
  op: "Const"
  device: "/device:GPU:0"
  attr {
    key: "_class"
    value {
      list {
        s: "loc:@train/resunit_transition_1/bottleneck_0/conv_0_1x1/weights"
      }
    }
  }
  attr {
    key: "_output_shapes"
    value {
      list {
        shape {
        }
      }
    }
  }
  attr {
    key: "dtype"
    value {
      type: DT_FLOAT
    }
  }
  attr {
    key: "value"
    value {
      tensor {
        dtype: DT_FLOAT
        tensor_shape {
        }
        float_val: 0.0
      }
    }
  }
}
node {
  name: "train/resunit_transition_1/bottleneck_0/conv_0_1x1/weights/Initializer/random_normal/stddev"
  op: "Const"
  device: "/device:GPU:0"
  attr {
    key: "_class"
    value {
      list {
        s: "loc:@train/resunit_transition_1/bottleneck_0/conv_0_1x1/weights"
      }
    }
  }
  attr {
    key: "_output_shapes"
    value {
      list {
        shape {
        }
      }
    }
  }
  attr {
    key: "dtype"
    value {
      type: DT_FLOAT
    }
  }
  attr {
    key: "value"
    value {
      tensor {
        dtype: DT_FLOAT
        tensor_shape {
        }
        float_val: 0.3535533845424652
      }
    }
  }
}
node {
  name: "train/resunit_transition_1/bottleneck_0/conv_0_1x1/weights/Initializer/random_normal/RandomStandardNormal"
  op: "RandomStandardNormal"
  input: "train/resunit_transition_1/bottleneck_0/conv_0_1x1/weights/Initializer/random_normal/shape"
  device: "/device:GPU:0"
  attr {
    key: "T"
    value {
      type: DT_INT32
    }
  }
  attr {
    key: "_class"
    value {
      list {
        s: "loc:@train/resunit_transition_1/bottleneck_0/conv_0_1x1/weights"
      }
    }
  }
  attr {
    key: "_output_shapes"
    value {
      list {
        shape {
          dim {
            size: 1
          }
          dim {
            size: 1
          }
          dim {
            size: 16
          }
          dim {
            size: 16
          }
        }
      }
    }
  }
  attr {
    key: "dtype"
    value {
      type: DT_FLOAT
    }
  }
  attr {
    key: "seed"
    value {
      i: 0
    }
  }
  attr {
    key: "seed2"
    value {
      i: 0
    }
  }
}
node {
  name: "train/resunit_transition_1/bottleneck_0/conv_0_1x1/weights/Initializer/random_normal/mul"
  op: "Mul"
  input: "train/resunit_transition_1/bottleneck_0/conv_0_1x1/weights/Initializer/random_normal/RandomStandardNormal"
  input: "train/resunit_transition_1/bottleneck_0/conv_0_1x1/weights/Initializer/random_normal/stddev"
  device: "/device:GPU:0"
  attr {
    key: "T"
    value {
      type: DT_FLOAT
    }
  }
  attr {
    key: "_class"
    value {
      list {
        s: "loc:@train/resunit_transition_1/bottleneck_0/conv_0_1x1/weights"
      }
    }
  }
  attr {
    key: "_output_shapes"
    value {
      list {
        shape {
          dim {
            size: 1
          }
          dim {
            size: 1
          }
          dim {
            size: 16
          }
          dim {
            size: 16
          }
        }
      }
    }
  }
}
node {
  name: "train/resunit_transition_1/bottleneck_0/conv_0_1x1/weights/Initializer/random_normal"
  op: "Add"
  input: "train/resunit_transition_1/bottleneck_0/conv_0_1x1/weights/Initializer/random_normal/mul"
  input: "train/resunit_transition_1/bottleneck_0/conv_0_1x1/weights/Initializer/random_normal/mean"
  device: "/device:GPU:0"
  attr {
    key: "T"
    value {
      type: DT_FLOAT
    }
  }
  attr {
    key: "_class"
    value {
      list {
        s: "loc:@train/resunit_transition_1/bottleneck_0/conv_0_1x1/weights"
      }
    }
  }
  attr {
    key: "_output_shapes"
    value {
      list {
        shape {
          dim {
            size: 1
          }
          dim {
            size: 1
          }
          dim {
            size: 16
          }
          dim {
            size: 16
          }
        }
      }
    }
  }
}
node {
  name: "train/resunit_transition_1/bottleneck_0/conv_0_1x1/weights/Assign"
  op: "Assign"
  input: "train/resunit_transition_1/bottleneck_0/conv_0_1x1/weights"
  input: "train/resunit_transition_1/bottleneck_0/conv_0_1x1/weights/Initializer/random_normal"
  device: "/device:GPU:0"
  attr {
    key: "T"
    value {
      type: DT_FLOAT
    }
  }
  attr {
    key: "_class"
    value {
      list {
        s: "loc:@train/resunit_transition_1/bottleneck_0/conv_0_1x1/weights"
      }
    }
  }
  attr {
    key: "_output_shapes"
    value {
      list {
        shape {
          dim {
            size: 1
          }
          dim {
            size: 1
          }
          dim {
            size: 16
          }
          dim {
            size: 16
          }
        }
      }
    }
  }
  attr {
    key: "use_locking"
    value {
      b: true
    }
  }
  attr {
    key: "validate_shape"
    value {
      b: true
    }
  }
}
node {
  name: "train/resunit_transition_1/bottleneck_0/conv_0_1x1/weights/read"
  op: "Identity"
  input: "train/resunit_transition_1/bottleneck_0/conv_0_1x1/weights"
  device: "/device:GPU:0"
  attr {
    key: "T"
    value {
      type: DT_FLOAT
    }
  }
  attr {
    key: "_class"
    value {
      list {
        s: "loc:@train/resunit_transition_1/bottleneck_0/conv_0_1x1/weights"
      }
    }
  }
  attr {
    key: "_output_shapes"
    value {
      list {
        shape {
          dim {
            size: 1
          }
          dim {
            size: 1
          }
          dim {
            size: 16
          }
          dim {
            size: 16
          }
        }
      }
    }
  }
}
node {
  name: "train/resunit_transition_1/bottleneck_0/conv_0_1x1/Conv2D"
  op: "Conv2D"
  input: "train/resunit_transition_1/bottleneck_0/activate_0"
  input: "train/resunit_transition_1/bottleneck_0/conv_0_1x1/weights/read"
  device: "/device:GPU:0"
  attr {
    key: "T"
    value {
      type: DT_FLOAT
    }
  }
  attr {
    key: "_output_shapes"
    value {
      list {
        shape {
          dim {
            size: 128
          }
          dim {
            size: 32
          }
          dim {
            size: 32
          }
          dim {
            size: 16
          }
        }
      }
    }
  }
  attr {
    key: "data_format"
    value {
      s: "NHWC"
    }
  }
  attr {
    key: "padding"
    value {
      s: "SAME"
    }
  }
  attr {
    key: "strides"
    value {
      list {
        i: 1
        i: 1
        i: 1
        i: 1
      }
    }
  }
  attr {
    key: "use_cudnn_on_gpu"
    value {
      b: true
    }
  }
}
node {
  name: "train/resunit_transition_1/bottleneck_1/batch_norm_1/beta"
  op: "Variable"
  device: "/device:GPU:0"
  attr {
    key: "_output_shapes"
    value {
      list {
        shape {
          dim {
            size: 16
          }
        }
      }
    }
  }
  attr {
    key: "container"
    value {
      s: ""
    }
  }
  attr {
    key: "dtype"
    value {
      type: DT_FLOAT
    }
  }
  attr {
    key: "shape"
    value {
      shape {
        dim {
          size: 16
        }
      }
    }
  }
  attr {
    key: "shared_name"
    value {
      s: ""
    }
  }
}
node {
  name: "train/resunit_transition_1/bottleneck_1/batch_norm_1/beta/Initializer/Const"
  op: "Const"
  device: "/device:GPU:0"
  attr {
    key: "_class"
    value {
      list {
        s: "loc:@train/resunit_transition_1/bottleneck_1/batch_norm_1/beta"
      }
    }
  }
  attr {
    key: "_output_shapes"
    value {
      list {
        shape {
          dim {
            size: 16
          }
        }
      }
    }
  }
  attr {
    key: "dtype"
    value {
      type: DT_FLOAT
    }
  }
  attr {
    key: "value"
    value {
      tensor {
        dtype: DT_FLOAT
        tensor_shape {
          dim {
            size: 16
          }
        }
        float_val: 0.0
      }
    }
  }
}
node {
  name: "train/resunit_transition_1/bottleneck_1/batch_norm_1/beta/Assign"
  op: "Assign"
  input: "train/resunit_transition_1/bottleneck_1/batch_norm_1/beta"
  input: "train/resunit_transition_1/bottleneck_1/batch_norm_1/beta/Initializer/Const"
  device: "/device:GPU:0"
  attr {
    key: "T"
    value {
      type: DT_FLOAT
    }
  }
  attr {
    key: "_class"
    value {
      list {
        s: "loc:@train/resunit_transition_1/bottleneck_1/batch_norm_1/beta"
      }
    }
  }
  attr {
    key: "_output_shapes"
    value {
      list {
        shape {
          dim {
            size: 16
          }
        }
      }
    }
  }
  attr {
    key: "use_locking"
    value {
      b: true
    }
  }
  attr {
    key: "validate_shape"
    value {
      b: true
    }
  }
}
node {
  name: "train/resunit_transition_1/bottleneck_1/batch_norm_1/beta/read"
  op: "Identity"
  input: "train/resunit_transition_1/bottleneck_1/batch_norm_1/beta"
  device: "/device:GPU:0"
  attr {
    key: "T"
    value {
      type: DT_FLOAT
    }
  }
  attr {
    key: "_class"
    value {
      list {
        s: "loc:@train/resunit_transition_1/bottleneck_1/batch_norm_1/beta"
      }
    }
  }
  attr {
    key: "_output_shapes"
    value {
      list {
        shape {
          dim {
            size: 16
          }
        }
      }
    }
  }
}
node {
  name: "train/resunit_transition_1/bottleneck_1/batch_norm_1/gamma"
  op: "Variable"
  device: "/device:GPU:0"
  attr {
    key: "_output_shapes"
    value {
      list {
        shape {
          dim {
            size: 16
          }
        }
      }
    }
  }
  attr {
    key: "container"
    value {
      s: ""
    }
  }
  attr {
    key: "dtype"
    value {
      type: DT_FLOAT
    }
  }
  attr {
    key: "shape"
    value {
      shape {
        dim {
          size: 16
        }
      }
    }
  }
  attr {
    key: "shared_name"
    value {
      s: ""
    }
  }
}
node {
  name: "train/resunit_transition_1/bottleneck_1/batch_norm_1/gamma/Initializer/Const"
  op: "Const"
  device: "/device:GPU:0"
  attr {
    key: "_class"
    value {
      list {
        s: "loc:@train/resunit_transition_1/bottleneck_1/batch_norm_1/gamma"
      }
    }
  }
  attr {
    key: "_output_shapes"
    value {
      list {
        shape {
          dim {
            size: 16
          }
        }
      }
    }
  }
  attr {
    key: "dtype"
    value {
      type: DT_FLOAT
    }
  }
  attr {
    key: "value"
    value {
      tensor {
        dtype: DT_FLOAT
        tensor_shape {
          dim {
            size: 16
          }
        }
        float_val: 1.0
      }
    }
  }
}
node {
  name: "train/resunit_transition_1/bottleneck_1/batch_norm_1/gamma/Assign"
  op: "Assign"
  input: "train/resunit_transition_1/bottleneck_1/batch_norm_1/gamma"
  input: "train/resunit_transition_1/bottleneck_1/batch_norm_1/gamma/Initializer/Const"
  device: "/device:GPU:0"
  attr {
    key: "T"
    value {
      type: DT_FLOAT
    }
  }
  attr {
    key: "_class"
    value {
      list {
        s: "loc:@train/resunit_transition_1/bottleneck_1/batch_norm_1/gamma"
      }
    }
  }
  attr {
    key: "_output_shapes"
    value {
      list {
        shape {
          dim {
            size: 16
          }
        }
      }
    }
  }
  attr {
    key: "use_locking"
    value {
      b: true
    }
  }
  attr {
    key: "validate_shape"
    value {
      b: true
    }
  }
}
node {
  name: "train/resunit_transition_1/bottleneck_1/batch_norm_1/gamma/read"
  op: "Identity"
  input: "train/resunit_transition_1/bottleneck_1/batch_norm_1/gamma"
  device: "/device:GPU:0"
  attr {
    key: "T"
    value {
      type: DT_FLOAT
    }
  }
  attr {
    key: "_class"
    value {
      list {
        s: "loc:@train/resunit_transition_1/bottleneck_1/batch_norm_1/gamma"
      }
    }
  }
  attr {
    key: "_output_shapes"
    value {
      list {
        shape {
          dim {
            size: 16
          }
        }
      }
    }
  }
}
node {
  name: "train/resunit_transition_1/bottleneck_1/batch_norm_1/moments/moments/Const"
  op: "Const"
  device: "/device:GPU:0"
  attr {
    key: "_output_shapes"
    value {
      list {
        shape {
        }
      }
    }
  }
  attr {
    key: "dtype"
    value {
      type: DT_FLOAT
    }
  }
  attr {
    key: "value"
    value {
      tensor {
        dtype: DT_FLOAT
        tensor_shape {
        }
        float_val: 131072.0
      }
    }
  }
}
node {
  name: "train/resunit_transition_1/bottleneck_1/batch_norm_1/moments/moments/Square"
  op: "Square"
  input: "train/resunit_transition_1/bottleneck_0/conv_0_1x1/Conv2D"
  device: "/device:GPU:0"
  attr {
    key: "T"
    value {
      type: DT_FLOAT
    }
  }
  attr {
    key: "_output_shapes"
    value {
      list {
        shape {
          dim {
            size: 128
          }
          dim {
            size: 32
          }
          dim {
            size: 32
          }
          dim {
            size: 16
          }
        }
      }
    }
  }
}
node {
  name: "train/resunit_transition_1/bottleneck_1/batch_norm_1/moments/moments/mean_ss/reduction_indices"
  op: "Const"
  device: "/device:GPU:0"
  attr {
    key: "_output_shapes"
    value {
      list {
        shape {
          dim {
            size: 3
          }
        }
      }
    }
  }
  attr {
    key: "dtype"
    value {
      type: DT_INT32
    }
  }
  attr {
    key: "value"
    value {
      tensor {
        dtype: DT_INT32
        tensor_shape {
          dim {
            size: 3
          }
        }
        tensor_content: "\000\000\000\000\001\000\000\000\002\000\000\000"
      }
    }
  }
}
node {
  name: "train/resunit_transition_1/bottleneck_1/batch_norm_1/moments/moments/mean_ss"
  op: "Sum"
  input: "train/resunit_transition_1/bottleneck_0/conv_0_1x1/Conv2D"
  input: "train/resunit_transition_1/bottleneck_1/batch_norm_1/moments/moments/mean_ss/reduction_indices"
  device: "/device:GPU:0"
  attr {
    key: "T"
    value {
      type: DT_FLOAT
    }
  }
  attr {
    key: "Tidx"
    value {
      type: DT_INT32
    }
  }
  attr {
    key: "_output_shapes"
    value {
      list {
        shape {
          dim {
            size: 16
          }
        }
      }
    }
  }
  attr {
    key: "keep_dims"
    value {
      b: false
    }
  }
}
node {
  name: "train/resunit_transition_1/bottleneck_1/batch_norm_1/moments/moments/var_ss/reduction_indices"
  op: "Const"
  device: "/device:GPU:0"
  attr {
    key: "_output_shapes"
    value {
      list {
        shape {
          dim {
            size: 3
          }
        }
      }
    }
  }
  attr {
    key: "dtype"
    value {
      type: DT_INT32
    }
  }
  attr {
    key: "value"
    value {
      tensor {
        dtype: DT_INT32
        tensor_shape {
          dim {
            size: 3
          }
        }
        tensor_content: "\000\000\000\000\001\000\000\000\002\000\000\000"
      }
    }
  }
}
node {
  name: "train/resunit_transition_1/bottleneck_1/batch_norm_1/moments/moments/var_ss"
  op: "Sum"
  input: "train/resunit_transition_1/bottleneck_1/batch_norm_1/moments/moments/Square"
  input: "train/resunit_transition_1/bottleneck_1/batch_norm_1/moments/moments/var_ss/reduction_indices"
  device: "/device:GPU:0"
  attr {
    key: "T"
    value {
      type: DT_FLOAT
    }
  }
  attr {
    key: "Tidx"
    value {
      type: DT_INT32
    }
  }
  attr {
    key: "_output_shapes"
    value {
      list {
        shape {
          dim {
            size: 16
          }
        }
      }
    }
  }
  attr {
    key: "keep_dims"
    value {
      b: false
    }
  }
}
node {
  name: "train/resunit_transition_1/bottleneck_1/batch_norm_1/moments/moments_1/divisor"
  op: "Reciprocal"
  input: "train/resunit_transition_1/bottleneck_1/batch_norm_1/moments/moments/Const"
  input: "^train/resunit_transition_1/bottleneck_1/batch_norm_1/moments/moments/mean_ss"
  input: "^train/resunit_transition_1/bottleneck_1/batch_norm_1/moments/moments/var_ss"
  device: "/device:GPU:0"
  attr {
    key: "T"
    value {
      type: DT_FLOAT
    }
  }
  attr {
    key: "_output_shapes"
    value {
      list {
        shape {
        }
      }
    }
  }
}
node {
  name: "train/resunit_transition_1/bottleneck_1/batch_norm_1/moments/moments_1/mean"
  op: "Mul"
  input: "train/resunit_transition_1/bottleneck_1/batch_norm_1/moments/moments/mean_ss"
  input: "train/resunit_transition_1/bottleneck_1/batch_norm_1/moments/moments_1/divisor"
  device: "/device:GPU:0"
  attr {
    key: "T"
    value {
      type: DT_FLOAT
    }
  }
  attr {
    key: "_output_shapes"
    value {
      list {
        shape {
          dim {
            size: 16
          }
        }
      }
    }
  }
}
node {
  name: "train/resunit_transition_1/bottleneck_1/batch_norm_1/moments/moments_1/Mul"
  op: "Mul"
  input: "train/resunit_transition_1/bottleneck_1/batch_norm_1/moments/moments/var_ss"
  input: "train/resunit_transition_1/bottleneck_1/batch_norm_1/moments/moments_1/divisor"
  device: "/device:GPU:0"
  attr {
    key: "T"
    value {
      type: DT_FLOAT
    }
  }
  attr {
    key: "_output_shapes"
    value {
      list {
        shape {
          dim {
            size: 16
          }
        }
      }
    }
  }
}
node {
  name: "train/resunit_transition_1/bottleneck_1/batch_norm_1/moments/moments_1/Square"
  op: "Square"
  input: "train/resunit_transition_1/bottleneck_1/batch_norm_1/moments/moments_1/mean"
  device: "/device:GPU:0"
  attr {
    key: "T"
    value {
      type: DT_FLOAT
    }
  }
  attr {
    key: "_output_shapes"
    value {
      list {
        shape {
          dim {
            size: 16
          }
        }
      }
    }
  }
}
node {
  name: "train/resunit_transition_1/bottleneck_1/batch_norm_1/moments/moments_1/variance"
  op: "Sub"
  input: "train/resunit_transition_1/bottleneck_1/batch_norm_1/moments/moments_1/Mul"
  input: "train/resunit_transition_1/bottleneck_1/batch_norm_1/moments/moments_1/Square"
  device: "/device:GPU:0"
  attr {
    key: "T"
    value {
      type: DT_FLOAT
    }
  }
  attr {
    key: "_output_shapes"
    value {
      list {
        shape {
          dim {
            size: 16
          }
        }
      }
    }
  }
}
node {
  name: "train/resunit_transition_1/bottleneck_1/batch_norm_1/moving_mean"
  op: "Variable"
  device: "/device:GPU:0"
  attr {
    key: "_output_shapes"
    value {
      list {
        shape {
          dim {
            size: 16
          }
        }
      }
    }
  }
  attr {
    key: "container"
    value {
      s: ""
    }
  }
  attr {
    key: "dtype"
    value {
      type: DT_FLOAT
    }
  }
  attr {
    key: "shape"
    value {
      shape {
        dim {
          size: 16
        }
      }
    }
  }
  attr {
    key: "shared_name"
    value {
      s: ""
    }
  }
}
node {
  name: "train/resunit_transition_1/bottleneck_1/batch_norm_1/moving_mean/Initializer/Const"
  op: "Const"
  device: "/device:GPU:0"
  attr {
    key: "_class"
    value {
      list {
        s: "loc:@train/resunit_transition_1/bottleneck_1/batch_norm_1/moving_mean"
      }
    }
  }
  attr {
    key: "_output_shapes"
    value {
      list {
        shape {
          dim {
            size: 16
          }
        }
      }
    }
  }
  attr {
    key: "dtype"
    value {
      type: DT_FLOAT
    }
  }
  attr {
    key: "value"
    value {
      tensor {
        dtype: DT_FLOAT
        tensor_shape {
          dim {
            size: 16
          }
        }
        float_val: 0.0
      }
    }
  }
}
node {
  name: "train/resunit_transition_1/bottleneck_1/batch_norm_1/moving_mean/Assign"
  op: "Assign"
  input: "train/resunit_transition_1/bottleneck_1/batch_norm_1/moving_mean"
  input: "train/resunit_transition_1/bottleneck_1/batch_norm_1/moving_mean/Initializer/Const"
  device: "/device:GPU:0"
  attr {
    key: "T"
    value {
      type: DT_FLOAT
    }
  }
  attr {
    key: "_class"
    value {
      list {
        s: "loc:@train/resunit_transition_1/bottleneck_1/batch_norm_1/moving_mean"
      }
    }
  }
  attr {
    key: "_output_shapes"
    value {
      list {
        shape {
          dim {
            size: 16
          }
        }
      }
    }
  }
  attr {
    key: "use_locking"
    value {
      b: true
    }
  }
  attr {
    key: "validate_shape"
    value {
      b: true
    }
  }
}
node {
  name: "train/resunit_transition_1/bottleneck_1/batch_norm_1/moving_mean/read"
  op: "Identity"
  input: "train/resunit_transition_1/bottleneck_1/batch_norm_1/moving_mean"
  device: "/device:GPU:0"
  attr {
    key: "T"
    value {
      type: DT_FLOAT
    }
  }
  attr {
    key: "_class"
    value {
      list {
        s: "loc:@train/resunit_transition_1/bottleneck_1/batch_norm_1/moving_mean"
      }
    }
  }
  attr {
    key: "_output_shapes"
    value {
      list {
        shape {
          dim {
            size: 16
          }
        }
      }
    }
  }
}
node {
  name: "train/resunit_transition_1/bottleneck_1/batch_norm_1/moving_var"
  op: "Variable"
  device: "/device:GPU:0"
  attr {
    key: "_output_shapes"
    value {
      list {
        shape {
          dim {
            size: 16
          }
        }
      }
    }
  }
  attr {
    key: "container"
    value {
      s: ""
    }
  }
  attr {
    key: "dtype"
    value {
      type: DT_FLOAT
    }
  }
  attr {
    key: "shape"
    value {
      shape {
        dim {
          size: 16
        }
      }
    }
  }
  attr {
    key: "shared_name"
    value {
      s: ""
    }
  }
}
node {
  name: "train/resunit_transition_1/bottleneck_1/batch_norm_1/moving_var/Initializer/Const"
  op: "Const"
  device: "/device:GPU:0"
  attr {
    key: "_class"
    value {
      list {
        s: "loc:@train/resunit_transition_1/bottleneck_1/batch_norm_1/moving_var"
      }
    }
  }
  attr {
    key: "_output_shapes"
    value {
      list {
        shape {
          dim {
            size: 16
          }
        }
      }
    }
  }
  attr {
    key: "dtype"
    value {
      type: DT_FLOAT
    }
  }
  attr {
    key: "value"
    value {
      tensor {
        dtype: DT_FLOAT
        tensor_shape {
          dim {
            size: 16
          }
        }
        float_val: 1.0
      }
    }
  }
}
node {
  name: "train/resunit_transition_1/bottleneck_1/batch_norm_1/moving_var/Assign"
  op: "Assign"
  input: "train/resunit_transition_1/bottleneck_1/batch_norm_1/moving_var"
  input: "train/resunit_transition_1/bottleneck_1/batch_norm_1/moving_var/Initializer/Const"
  device: "/device:GPU:0"
  attr {
    key: "T"
    value {
      type: DT_FLOAT
    }
  }
  attr {
    key: "_class"
    value {
      list {
        s: "loc:@train/resunit_transition_1/bottleneck_1/batch_norm_1/moving_var"
      }
    }
  }
  attr {
    key: "_output_shapes"
    value {
      list {
        shape {
          dim {
            size: 16
          }
        }
      }
    }
  }
  attr {
    key: "use_locking"
    value {
      b: true
    }
  }
  attr {
    key: "validate_shape"
    value {
      b: true
    }
  }
}
node {
  name: "train/resunit_transition_1/bottleneck_1/batch_norm_1/moving_var/read"
  op: "Identity"
  input: "train/resunit_transition_1/bottleneck_1/batch_norm_1/moving_var"
  device: "/device:GPU:0"
  attr {
    key: "T"
    value {
      type: DT_FLOAT
    }
  }
  attr {
    key: "_class"
    value {
      list {
        s: "loc:@train/resunit_transition_1/bottleneck_1/batch_norm_1/moving_var"
      }
    }
  }
  attr {
    key: "_output_shapes"
    value {
      list {
        shape {
          dim {
            size: 16
          }
        }
      }
    }
  }
}
node {
  name: "train/resunit_transition_1/bottleneck_1/batch_norm_1/AssignMovingAvg/decay"
  op: "Const"
  device: "/device:GPU:0"
  attr {
    key: "_class"
    value {
      list {
        s: "loc:@train/resunit_transition_1/bottleneck_1/batch_norm_1/moving_mean"
      }
    }
  }
  attr {
    key: "_output_shapes"
    value {
      list {
        shape {
        }
      }
    }
  }
  attr {
    key: "dtype"
    value {
      type: DT_FLOAT
    }
  }
  attr {
    key: "value"
    value {
      tensor {
        dtype: DT_FLOAT
        tensor_shape {
        }
        float_val: 0.15000000596046448
      }
    }
  }
}
node {
  name: "train/resunit_transition_1/bottleneck_1/batch_norm_1/AssignMovingAvg/train/resunit_transition_1/bottleneck_1/batch_norm_1/moving_mean/zeros"
  op: "Const"
  device: "/device:GPU:0"
  attr {
    key: "_class"
    value {
      list {
        s: "loc:@train/resunit_transition_1/bottleneck_1/batch_norm_1/moving_mean"
      }
    }
  }
  attr {
    key: "_output_shapes"
    value {
      list {
        shape {
          dim {
            size: 16
          }
        }
      }
    }
  }
  attr {
    key: "dtype"
    value {
      type: DT_FLOAT
    }
  }
  attr {
    key: "value"
    value {
      tensor {
        dtype: DT_FLOAT
        tensor_shape {
          dim {
            size: 16
          }
        }
        float_val: 0.0
      }
    }
  }
}
node {
  name: "train/resunit_transition_1/bottleneck_1/batch_norm_1/train/resunit_transition_1/bottleneck_1/batch_norm_1/moving_mean/biased"
  op: "Variable"
  device: "/device:GPU:0"
  attr {
    key: "_class"
    value {
      list {
        s: "loc:@train/resunit_transition_1/bottleneck_1/batch_norm_1/moving_mean"
      }
    }
  }
  attr {
    key: "_output_shapes"
    value {
      list {
        shape {
          dim {
            size: 16
          }
        }
      }
    }
  }
  attr {
    key: "container"
    value {
      s: ""
    }
  }
  attr {
    key: "dtype"
    value {
      type: DT_FLOAT
    }
  }
  attr {
    key: "shape"
    value {
      shape {
        dim {
          size: 16
        }
      }
    }
  }
  attr {
    key: "shared_name"
    value {
      s: ""
    }
  }
}
node {
  name: "train/resunit_transition_1/bottleneck_1/batch_norm_1/train/resunit_transition_1/bottleneck_1/batch_norm_1/moving_mean/biased/Assign"
  op: "Assign"
  input: "train/resunit_transition_1/bottleneck_1/batch_norm_1/train/resunit_transition_1/bottleneck_1/batch_norm_1/moving_mean/biased"
  input: "train/resunit_transition_1/bottleneck_1/batch_norm_1/AssignMovingAvg/train/resunit_transition_1/bottleneck_1/batch_norm_1/moving_mean/zeros"
  device: "/device:GPU:0"
  attr {
    key: "T"
    value {
      type: DT_FLOAT
    }
  }
  attr {
    key: "_class"
    value {
      list {
        s: "loc:@train/resunit_transition_1/bottleneck_1/batch_norm_1/moving_mean"
      }
    }
  }
  attr {
    key: "_output_shapes"
    value {
      list {
        shape {
          dim {
            size: 16
          }
        }
      }
    }
  }
  attr {
    key: "use_locking"
    value {
      b: true
    }
  }
  attr {
    key: "validate_shape"
    value {
      b: true
    }
  }
}
node {
  name: "train/resunit_transition_1/bottleneck_1/batch_norm_1/train/resunit_transition_1/bottleneck_1/batch_norm_1/moving_mean/biased/read"
  op: "Identity"
  input: "train/resunit_transition_1/bottleneck_1/batch_norm_1/train/resunit_transition_1/bottleneck_1/batch_norm_1/moving_mean/biased"
  device: "/device:GPU:0"
  attr {
    key: "T"
    value {
      type: DT_FLOAT
    }
  }
  attr {
    key: "_class"
    value {
      list {
        s: "loc:@train/resunit_transition_1/bottleneck_1/batch_norm_1/moving_mean"
      }
    }
  }
  attr {
    key: "_output_shapes"
    value {
      list {
        shape {
          dim {
            size: 16
          }
        }
      }
    }
  }
}
node {
  name: "train/resunit_transition_1/bottleneck_1/batch_norm_1/train/resunit_transition_1/bottleneck_1/batch_norm_1/moving_mean/local_step"
  op: "Variable"
  device: "/device:GPU:0"
  attr {
    key: "_class"
    value {
      list {
        s: "loc:@train/resunit_transition_1/bottleneck_1/batch_norm_1/moving_mean"
      }
    }
  }
  attr {
    key: "_output_shapes"
    value {
      list {
        shape {
        }
      }
    }
  }
  attr {
    key: "container"
    value {
      s: ""
    }
  }
  attr {
    key: "dtype"
    value {
      type: DT_FLOAT
    }
  }
  attr {
    key: "shape"
    value {
      shape {
      }
    }
  }
  attr {
    key: "shared_name"
    value {
      s: ""
    }
  }
}
node {
  name: "train/resunit_transition_1/bottleneck_1/batch_norm_1/train/resunit_transition_1/bottleneck_1/batch_norm_1/moving_mean/local_step/Initializer/Const"
  op: "Const"
  device: "/device:GPU:0"
  attr {
    key: "_class"
    value {
      list {
        s: "loc:@train/resunit_transition_1/bottleneck_1/batch_norm_1/moving_mean"
      }
    }
  }
  attr {
    key: "_output_shapes"
    value {
      list {
        shape {
        }
      }
    }
  }
  attr {
    key: "dtype"
    value {
      type: DT_FLOAT
    }
  }
  attr {
    key: "value"
    value {
      tensor {
        dtype: DT_FLOAT
        tensor_shape {
        }
        float_val: 1.0
      }
    }
  }
}
node {
  name: "train/resunit_transition_1/bottleneck_1/batch_norm_1/train/resunit_transition_1/bottleneck_1/batch_norm_1/moving_mean/local_step/Assign"
  op: "Assign"
  input: "train/resunit_transition_1/bottleneck_1/batch_norm_1/train/resunit_transition_1/bottleneck_1/batch_norm_1/moving_mean/local_step"
  input: "train/resunit_transition_1/bottleneck_1/batch_norm_1/train/resunit_transition_1/bottleneck_1/batch_norm_1/moving_mean/local_step/Initializer/Const"
  device: "/device:GPU:0"
  attr {
    key: "T"
    value {
      type: DT_FLOAT
    }
  }
  attr {
    key: "_class"
    value {
      list {
        s: "loc:@train/resunit_transition_1/bottleneck_1/batch_norm_1/moving_mean"
      }
    }
  }
  attr {
    key: "_output_shapes"
    value {
      list {
        shape {
        }
      }
    }
  }
  attr {
    key: "use_locking"
    value {
      b: true
    }
  }
  attr {
    key: "validate_shape"
    value {
      b: true
    }
  }
}
node {
  name: "train/resunit_transition_1/bottleneck_1/batch_norm_1/train/resunit_transition_1/bottleneck_1/batch_norm_1/moving_mean/local_step/read"
  op: "Identity"
  input: "train/resunit_transition_1/bottleneck_1/batch_norm_1/train/resunit_transition_1/bottleneck_1/batch_norm_1/moving_mean/local_step"
  device: "/device:GPU:0"
  attr {
    key: "T"
    value {
      type: DT_FLOAT
    }
  }
  attr {
    key: "_class"
    value {
      list {
        s: "loc:@train/resunit_transition_1/bottleneck_1/batch_norm_1/moving_mean"
      }
    }
  }
  attr {
    key: "_output_shapes"
    value {
      list {
        shape {
        }
      }
    }
  }
}
node {
  name: "train/resunit_transition_1/bottleneck_1/batch_norm_1/AssignMovingAvg/train/resunit_transition_1/bottleneck_1/batch_norm_1/moving_mean/sub"
  op: "Sub"
  input: "train/resunit_transition_1/bottleneck_1/batch_norm_1/train/resunit_transition_1/bottleneck_1/batch_norm_1/moving_mean/biased/read"
  input: "train/resunit_transition_1/bottleneck_1/batch_norm_1/moments/moments_1/mean"
  device: "/device:GPU:0"
  attr {
    key: "T"
    value {
      type: DT_FLOAT
    }
  }
  attr {
    key: "_class"
    value {
      list {
        s: "loc:@train/resunit_transition_1/bottleneck_1/batch_norm_1/moving_mean"
      }
    }
  }
  attr {
    key: "_output_shapes"
    value {
      list {
        shape {
          dim {
            size: 16
          }
        }
      }
    }
  }
}
node {
  name: "train/resunit_transition_1/bottleneck_1/batch_norm_1/AssignMovingAvg/train/resunit_transition_1/bottleneck_1/batch_norm_1/moving_mean/mul"
  op: "Mul"
  input: "train/resunit_transition_1/bottleneck_1/batch_norm_1/AssignMovingAvg/train/resunit_transition_1/bottleneck_1/batch_norm_1/moving_mean/sub"
  input: "train/resunit_transition_1/bottleneck_1/batch_norm_1/AssignMovingAvg/decay"
  device: "/device:GPU:0"
  attr {
    key: "T"
    value {
      type: DT_FLOAT
    }
  }
  attr {
    key: "_class"
    value {
      list {
        s: "loc:@train/resunit_transition_1/bottleneck_1/batch_norm_1/moving_mean"
      }
    }
  }
  attr {
    key: "_output_shapes"
    value {
      list {
        shape {
          dim {
            size: 16
          }
        }
      }
    }
  }
}
node {
  name: "train/resunit_transition_1/bottleneck_1/batch_norm_1/AssignMovingAvg/train/resunit_transition_1/bottleneck_1/batch_norm_1/moving_mean/train/resunit_transition_1/bottleneck_1/batch_norm_1/train/resunit_transition_1/bottleneck_1/batch_norm_1/moving_mean"
  op: "AssignSub"
  input: "train/resunit_transition_1/bottleneck_1/batch_norm_1/train/resunit_transition_1/bottleneck_1/batch_norm_1/moving_mean/biased"
  input: "train/resunit_transition_1/bottleneck_1/batch_norm_1/AssignMovingAvg/train/resunit_transition_1/bottleneck_1/batch_norm_1/moving_mean/mul"
  device: "/device:GPU:0"
  attr {
    key: "T"
    value {
      type: DT_FLOAT
    }
  }
  attr {
    key: "_class"
    value {
      list {
        s: "loc:@train/resunit_transition_1/bottleneck_1/batch_norm_1/moving_mean"
      }
    }
  }
  attr {
    key: "_output_shapes"
    value {
      list {
        shape {
          dim {
            size: 16
          }
        }
      }
    }
  }
  attr {
    key: "use_locking"
    value {
      b: false
    }
  }
}
node {
  name: "train/resunit_transition_1/bottleneck_1/batch_norm_1/AssignMovingAvg/train/resunit_transition_1/bottleneck_1/batch_norm_1/moving_mean/AssignAdd/value"
  op: "Const"
  device: "/device:GPU:0"
  attr {
    key: "_class"
    value {
      list {
        s: "loc:@train/resunit_transition_1/bottleneck_1/batch_norm_1/moving_mean"
      }
    }
  }
  attr {
    key: "_output_shapes"
    value {
      list {
        shape {
        }
      }
    }
  }
  attr {
    key: "dtype"
    value {
      type: DT_FLOAT
    }
  }
  attr {
    key: "value"
    value {
      tensor {
        dtype: DT_FLOAT
        tensor_shape {
        }
        float_val: 1.0
      }
    }
  }
}
node {
  name: "train/resunit_transition_1/bottleneck_1/batch_norm_1/AssignMovingAvg/train/resunit_transition_1/bottleneck_1/batch_norm_1/moving_mean/AssignAdd"
  op: "AssignAdd"
  input: "train/resunit_transition_1/bottleneck_1/batch_norm_1/train/resunit_transition_1/bottleneck_1/batch_norm_1/moving_mean/local_step"
  input: "train/resunit_transition_1/bottleneck_1/batch_norm_1/AssignMovingAvg/train/resunit_transition_1/bottleneck_1/batch_norm_1/moving_mean/AssignAdd/value"
  device: "/device:GPU:0"
  attr {
    key: "T"
    value {
      type: DT_FLOAT
    }
  }
  attr {
    key: "_class"
    value {
      list {
        s: "loc:@train/resunit_transition_1/bottleneck_1/batch_norm_1/moving_mean"
      }
    }
  }
  attr {
    key: "_output_shapes"
    value {
      list {
        shape {
        }
      }
    }
  }
  attr {
    key: "use_locking"
    value {
      b: false
    }
  }
}
node {
  name: "train/resunit_transition_1/bottleneck_1/batch_norm_1/AssignMovingAvg/train/resunit_transition_1/bottleneck_1/batch_norm_1/moving_mean/read"
  op: "Identity"
  input: "train/resunit_transition_1/bottleneck_1/batch_norm_1/train/resunit_transition_1/bottleneck_1/batch_norm_1/moving_mean/biased"
  input: "^train/resunit_transition_1/bottleneck_1/batch_norm_1/AssignMovingAvg/train/resunit_transition_1/bottleneck_1/batch_norm_1/moving_mean/train/resunit_transition_1/bottleneck_1/batch_norm_1/train/resunit_transition_1/bottleneck_1/batch_norm_1/moving_mean"
…
  name: "save/RestoreV2_220/tensor_names"
  op: "Const"
  device: "/device:CPU:0"
  attr {
    key: "_output_shapes"
    value {
      list {
        shape {
          dim {
            size: 1
          }
        }
      }
    }
  }
  attr {
    key: "dtype"
    value {
      type: DT_STRING
    }
  }
  attr {
    key: "value"
    value {
      tensor {
        dtype: DT_STRING
        tensor_shape {
          dim {
            size: 1
          }
        }
        string_val: "train/train/resunit_transition_2/bottleneck_0/batch_norm_0/gamma/Momentum"
      }
    }
  }
}
node {
  name: "save/RestoreV2_220/shape_and_slices"
  op: "Const"
  device: "/device:CPU:0"
  attr {
    key: "_output_shapes"
    value {
      list {
        shape {
          dim {
            size: 1
          }
        }
      }
    }
  }
  attr {
    key: "dtype"
    value {
      type: DT_STRING
    }
  }
  attr {
    key: "value"
    value {
      tensor {
        dtype: DT_STRING
        tensor_shape {
          dim {
            size: 1
          }
        }
        string_val: ""
      }
    }
  }
}
node {
  name: "save/RestoreV2_220"
  op: "RestoreV2"
  input: "save/Const"
  input: "save/RestoreV2_220/tensor_names"
  input: "save/RestoreV2_220/shape_and_slices"
  device: "/device:CPU:0"
  attr {
    key: "_output_shapes"
    value {
      list {
        shape {
          unknown_rank: true
        }
      }
    }
  }
  attr {
    key: "dtypes"
    value {
      list {
        type: DT_FLOAT
      }
    }
  }
}
node {
  name: "save/Assign_220"
  op: "Assign"
  input: "train/train/resunit_transition_2/bottleneck_0/batch_norm_0/gamma/Momentum"
  input: "save/RestoreV2_220"
  device: "/device:GPU:0"
  attr {
    key: "T"
    value {
      type: DT_FLOAT
    }
  }
  attr {
    key: "_class"
    value {
      list {
        s: "loc:@train/resunit_transition_2/bottleneck_0/batch_norm_0/gamma"
      }
    }
  }
  attr {
    key: "_output_shapes"
    value {
      list {
        shape {
          dim {
            size: 64
          }
        }
      }
    }
  }
  attr {
    key: "use_locking"
    value {
      b: true
    }
  }
  attr {
    key: "validate_shape"
    value {
      b: true
    }
  }
}
node {
  name: "save/RestoreV2_221/tensor_names"
  op: "Const"
  device: "/device:CPU:0"
  attr {
    key: "_output_shapes"
    value {
      list {
        shape {
          dim {
            size: 1
          }
        }
      }
    }
  }
  attr {
    key: "dtype"
    value {
      type: DT_STRING
    }
  }
  attr {
    key: "value"
    value {
      tensor {
        dtype: DT_STRING
        tensor_shape {
          dim {
            size: 1
          }
        }
        string_val: "train/train/resunit_transition_2/bottleneck_0/conv_0_1x1/weights/Momentum"
      }
    }
  }
}
node {
  name: "save/RestoreV2_221/shape_and_slices"
  op: "Const"
  device: "/device:CPU:0"
  attr {
    key: "_output_shapes"
    value {
      list {
        shape {
          dim {
            size: 1
          }
        }
      }
    }
  }
  attr {
    key: "dtype"
    value {
      type: DT_STRING
    }
  }
  attr {
    key: "value"
    value {
      tensor {
        dtype: DT_STRING
        tensor_shape {
          dim {
            size: 1
          }
        }
        string_val: ""
      }
    }
  }
}
node {
  name: "save/RestoreV2_221"
  op: "RestoreV2"
  input: "save/Const"
  input: "save/RestoreV2_221/tensor_names"
  input: "save/RestoreV2_221/shape_and_slices"
  device: "/device:CPU:0"
  attr {
    key: "_output_shapes"
    value {
      list {
        shape {
          unknown_rank: true
        }
      }
    }
  }
  attr {
    key: "dtypes"
    value {
      list {
        type: DT_FLOAT
      }
    }
  }
}
node {
  name: "save/Assign_221"
  op: "Assign"
  input: "train/train/resunit_transition_2/bottleneck_0/conv_0_1x1/weights/Momentum"
  input: "save/RestoreV2_221"
  device: "/device:GPU:0"
  attr {
    key: "T"
    value {
      type: DT_FLOAT
    }
  }
  attr {
    key: "_class"
    value {
      list {
        s: "loc:@train/resunit_transition_2/bottleneck_0/conv_0_1x1/weights"
      }
    }
  }
  attr {
    key: "_output_shapes"
    value {
      list {
        shape {
          dim {
            size: 1
          }
          dim {
            size: 1
          }
          dim {
            size: 64
          }
          dim {
            size: 32
          }
        }
      }
    }
  }
  attr {
    key: "use_locking"
    value {
      b: true
    }
  }
  attr {
    key: "validate_shape"
    value {
      b: true
    }
  }
}
node {
  name: "save/RestoreV2_222/tensor_names"
  op: "Const"
  device: "/device:CPU:0"
  attr {
    key: "_output_shapes"
    value {
      list {
        shape {
          dim {
            size: 1
          }
        }
      }
    }
  }
  attr {
    key: "dtype"
    value {
      type: DT_STRING
    }
  }
  attr {
    key: "value"
    value {
      tensor {
        dtype: DT_STRING
        tensor_shape {
          dim {
            size: 1
          }
        }
        string_val: "train/train/resunit_transition_2/bottleneck_1/batch_norm_1/beta/Momentum"
      }
    }
  }
}
node {
  name: "save/RestoreV2_222/shape_and_slices"
  op: "Const"
  device: "/device:CPU:0"
  attr {
    key: "_output_shapes"
    value {
      list {
        shape {
          dim {
            size: 1
          }
        }
      }
    }
  }
  attr {
    key: "dtype"
    value {
      type: DT_STRING
    }
  }
  attr {
    key: "value"
    value {
      tensor {
        dtype: DT_STRING
        tensor_shape {
          dim {
            size: 1
          }
        }
        string_val: ""
      }
    }
  }
}
node {
  name: "save/RestoreV2_222"
  op: "RestoreV2"
  input: "save/Const"
  input: "save/RestoreV2_222/tensor_names"
  input: "save/RestoreV2_222/shape_and_slices"
  device: "/device:CPU:0"
  attr {
    key: "_output_shapes"
    value {
      list {
        shape {
          unknown_rank: true
        }
      }
    }
  }
  attr {
    key: "dtypes"
    value {
      list {
        type: DT_FLOAT
      }
    }
  }
}
node {
  name: "save/Assign_222"
  op: "Assign"
  input: "train/train/resunit_transition_2/bottleneck_1/batch_norm_1/beta/Momentum"
  input: "save/RestoreV2_222"
  device: "/device:GPU:0"
  attr {
    key: "T"
    value {
      type: DT_FLOAT
    }
  }
  attr {
    key: "_class"
    value {
      list {
        s: "loc:@train/resunit_transition_2/bottleneck_1/batch_norm_1/beta"
      }
    }
  }
  attr {
    key: "_output_shapes"
    value {
      list {
        shape {
          dim {
            size: 32
          }
        }
      }
    }
  }
  attr {
    key: "use_locking"
    value {
      b: true
    }
  }
  attr {
    key: "validate_shape"
    value {
      b: true
    }
  }
}
node {
  name: "save/RestoreV2_223/tensor_names"
  op: "Const"
  device: "/device:CPU:0"
  attr {
    key: "_output_shapes"
    value {
      list {
        shape {
          dim {
            size: 1
          }
        }
      }
    }
  }
  attr {
    key: "dtype"
    value {
      type: DT_STRING
    }
  }
  attr {
    key: "value"
    value {
      tensor {
        dtype: DT_STRING
        tensor_shape {
          dim {
            size: 1
          }
        }
        string_val: "train/train/resunit_transition_2/bottleneck_1/batch_norm_1/gamma/Momentum"
      }
    }
  }
}
node {
  name: "save/RestoreV2_223/shape_and_slices"
  op: "Const"
  device: "/device:CPU:0"
  attr {
    key: "_output_shapes"
    value {
      list {
        shape {
          dim {
            size: 1
          }
        }
      }
    }
  }
  attr {
    key: "dtype"
    value {
      type: DT_STRING
    }
  }
  attr {
    key: "value"
    value {
      tensor {
        dtype: DT_STRING
        tensor_shape {
          dim {
            size: 1
          }
        }
        string_val: ""
      }
    }
  }
}
node {
  name: "save/RestoreV2_223"
  op: "RestoreV2"
  input: "save/Const"
  input: "save/RestoreV2_223/tensor_names"
  input: "save/RestoreV2_223/shape_and_slices"
  device: "/device:CPU:0"
  attr {
    key: "_output_shapes"
    value {
      list {
        shape {
          unknown_rank: true
        }
      }
    }
  }
  attr {
    key: "dtypes"
    value {
      list {
        type: DT_FLOAT
      }
    }
  }
}
node {
  name: "save/Assign_223"
  op: "Assign"
  input: "train/train/resunit_transition_2/bottleneck_1/batch_norm_1/gamma/Momentum"
  input: "save/RestoreV2_223"
  device: "/device:GPU:0"
  attr {
    key: "T"
    value {
      type: DT_FLOAT
    }
  }
  attr {
    key: "_class"
    value {
      list {
        s: "loc:@train/resunit_transition_2/bottleneck_1/batch_norm_1/gamma"
      }
    }
  }
  attr {
    key: "_output_shapes"
    value {
      list {
        shape {
          dim {
            size: 32
          }
        }
      }
    }
  }
  attr {
    key: "use_locking"
    value {
      b: true
    }
  }
  attr {
    key: "validate_shape"
    value {
      b: true
    }
  }
}
node {
  name: "save/RestoreV2_224/tensor_names"
  op: "Const"
  device: "/device:CPU:0"
  attr {
    key: "_output_shapes"
    value {
      list {
        shape {
          dim {
            size: 1
          }
        }
      }
    }
  }
  attr {
    key: "dtype"
    value {
      type: DT_STRING
    }
  }
  attr {
    key: "value"
    value {
      tensor {
        dtype: DT_STRING
        tensor_shape {
          dim {
            size: 1
          }
        }
        string_val: "train/train/resunit_transition_2/bottleneck_1/conv_1_3x3/weights/Momentum"
      }
    }
  }
}
node {
  name: "save/RestoreV2_224/shape_and_slices"
  op: "Const"
  device: "/device:CPU:0"
  attr {
    key: "_output_shapes"
    value {
      list {
        shape {
          dim {
            size: 1
          }
        }
      }
    }
  }
  attr {
    key: "dtype"
    value {
      type: DT_STRING
    }
  }
  attr {
    key: "value"
    value {
      tensor {
        dtype: DT_STRING
        tensor_shape {
          dim {
            size: 1
          }
        }
        string_val: ""
      }
    }
  }
}
node {
  name: "save/RestoreV2_224"
  op: "RestoreV2"
  input: "save/Const"
  input: "save/RestoreV2_224/tensor_names"
  input: "save/RestoreV2_224/shape_and_slices"
  device: "/device:CPU:0"
  attr {
    key: "_output_shapes"
    value {
      list {
        shape {
          unknown_rank: true
        }
      }
    }
  }
  attr {
    key: "dtypes"
    value {
      list {
        type: DT_FLOAT
      }
    }
  }
}
node {
  name: "save/Assign_224"
  op: "Assign"
  input: "train/train/resunit_transition_2/bottleneck_1/conv_1_3x3/weights/Momentum"
  input: "save/RestoreV2_224"
  device: "/device:GPU:0"
  attr {
    key: "T"
    value {
      type: DT_FLOAT
    }
  }
  attr {
    key: "_class"
    value {
      list {
        s: "loc:@train/resunit_transition_2/bottleneck_1/conv_1_3x3/weights"
      }
    }
  }
  attr {
    key: "_output_shapes"
    value {
      list {
        shape {
          dim {
            size: 3
          }
          dim {
            size: 3
          }
          dim {
            size: 32
          }
          dim {
            size: 32
          }
        }
      }
    }
  }
  attr {
    key: "use_locking"
    value {
      b: true
    }
  }
  attr {
    key: "validate_shape"
    value {
      b: true
    }
  }
}
node {
  name: "save/RestoreV2_225/tensor_names"
  op: "Const"
  device: "/device:CPU:0"
  attr {
    key: "_output_shapes"
    value {
      list {
        shape {
          dim {
            size: 1
          }
        }
      }
    }
  }
  attr {
    key: "dtype"
    value {
      type: DT_STRING
    }
  }
  attr {
    key: "value"
    value {
      tensor {
        dtype: DT_STRING
        tensor_shape {
          dim {
            size: 1
          }
        }
        string_val: "train/train/resunit_transition_2/bottleneck_2/batch_norm_2/beta/Momentum"
      }
    }
  }
}
node {
  name: "save/RestoreV2_225/shape_and_slices"
  op: "Const"
  device: "/device:CPU:0"
  attr {
    key: "_output_shapes"
    value {
      list {
        shape {
          dim {
            size: 1
          }
        }
      }
    }
  }
  attr {
    key: "dtype"
    value {
      type: DT_STRING
    }
  }
  attr {
    key: "value"
    value {
      tensor {
        dtype: DT_STRING
        tensor_shape {
          dim {
            size: 1
          }
        }
        string_val: ""
      }
    }
  }
}
node {
  name: "save/RestoreV2_225"
  op: "RestoreV2"
  input: "save/Const"
  input: "save/RestoreV2_225/tensor_names"
  input: "save/RestoreV2_225/shape_and_slices"
  device: "/device:CPU:0"
  attr {
    key: "_output_shapes"
    value {
      list {
        shape {
          unknown_rank: true
        }
      }
    }
  }
  attr {
    key: "dtypes"
    value {
      list {
        type: DT_FLOAT
      }
    }
  }
}
node {
  name: "save/Assign_225"
  op: "Assign"
  input: "train/train/resunit_transition_2/bottleneck_2/batch_norm_2/beta/Momentum"
  input: "save/RestoreV2_225"
  device: "/device:GPU:0"
  attr {
    key: "T"
    value {
      type: DT_FLOAT
    }
  }
  attr {
    key: "_class"
    value {
      list {
        s: "loc:@train/resunit_transition_2/bottleneck_2/batch_norm_2/beta"
      }
    }
  }
  attr {
    key: "_output_shapes"
    value {
      list {
        shape {
          dim {
            size: 32
          }
        }
      }
    }
  }
  attr {
    key: "use_locking"
    value {
      b: true
    }
  }
  attr {
    key: "validate_shape"
    value {
      b: true
    }
  }
}
node {
  name: "save/RestoreV2_226/tensor_names"
  op: "Const"
  device: "/device:CPU:0"
  attr {
    key: "_output_shapes"
    value {
      list {
        shape {
          dim {
            size: 1
          }
        }
      }
    }
  }
  attr {
    key: "dtype"
    value {
      type: DT_STRING
    }
  }
  attr {
    key: "value"
    value {
      tensor {
        dtype: DT_STRING
        tensor_shape {
          dim {
            size: 1
          }
        }
        string_val: "train/train/resunit_transition_2/bottleneck_2/batch_norm_2/gamma/Momentum"
      }
    }
  }
}
node {
  name: "save/RestoreV2_226/shape_and_slices"
  op: "Const"
  device: "/device:CPU:0"
  attr {
    key: "_output_shapes"
    value {
      list {
        shape {
          dim {
            size: 1
          }
        }
      }
    }
  }
  attr {
    key: "dtype"
    value {
      type: DT_STRING
    }
  }
  attr {
    key: "value"
    value {
      tensor {
        dtype: DT_STRING
        tensor_shape {
          dim {
            size: 1
          }
        }
        string_val: ""
      }
    }
  }
}
node {
  name: "save/RestoreV2_226"
  op: "RestoreV2"
  input: "save/Const"
  input: "save/RestoreV2_226/tensor_names"
  input: "save/RestoreV2_226/shape_and_slices"
  device: "/device:CPU:0"
  attr {
    key: "_output_shapes"
    value {
      list {
        shape {
          unknown_rank: true
        }
      }
    }
  }
  attr {
    key: "dtypes"
    value {
      list {
        type: DT_FLOAT
      }
    }
  }
}
node {
  name: "save/Assign_226"
  op: "Assign"
  input: "train/train/resunit_transition_2/bottleneck_2/batch_norm_2/gamma/Momentum"
  input: "save/RestoreV2_226"
  device: "/device:GPU:0"
  attr {
    key: "T"
    value {
      type: DT_FLOAT
    }
  }
  attr {
    key: "_class"
    value {
      list {
        s: "loc:@train/resunit_transition_2/bottleneck_2/batch_norm_2/gamma"
      }
    }
  }
  attr {
    key: "_output_shapes"
    value {
      list {
        shape {
          dim {
            size: 32
          }
        }
      }
    }
  }
  attr {
    key: "use_locking"
    value {
      b: true
    }
  }
  attr {
    key: "validate_shape"
    value {
      b: true
    }
  }
}
node {
  name: "save/RestoreV2_227/tensor_names"
  op: "Const"
  device: "/device:CPU:0"
  attr {
    key: "_output_shapes"
    value {
      list {
        shape {
          dim {
            size: 1
          }
        }
      }
    }
  }
  attr {
    key: "dtype"
    value {
      type: DT_STRING
    }
  }
  attr {
    key: "value"
    value {
      tensor {
        dtype: DT_STRING
        tensor_shape {
          dim {
            size: 1
          }
        }
        string_val: "train/train/resunit_transition_2/bottleneck_2/conv_2_1x1/weights/Momentum"
      }
    }
  }
}
node {
  name: "save/RestoreV2_227/shape_and_slices"
  op: "Const"
  device: "/device:CPU:0"
  attr {
    key: "_output_shapes"
    value {
      list {
        shape {
          dim {
            size: 1
          }
        }
      }
    }
  }
  attr {
    key: "dtype"
    value {
      type: DT_STRING
    }
  }
  attr {
    key: "value"
    value {
      tensor {
        dtype: DT_STRING
        tensor_shape {
          dim {
            size: 1
          }
        }
        string_val: ""
      }
    }
  }
}
node {
  name: "save/RestoreV2_227"
  op: "RestoreV2"
  input: "save/Const"
  input: "save/RestoreV2_227/tensor_names"
  input: "save/RestoreV2_227/shape_and_slices"
  device: "/device:CPU:0"
  attr {
    key: "_output_shapes"
    value {
      list {
        shape {
          unknown_rank: true
        }
      }
    }
  }
  attr {
    key: "dtypes"
    value {
      list {
        type: DT_FLOAT
      }
    }
  }
}
node {
  name: "save/Assign_227"
  op: "Assign"
  input: "train/train/resunit_transition_2/bottleneck_2/conv_2_1x1/weights/Momentum"
  input: "save/RestoreV2_227"
  device: "/device:GPU:0"
  attr {
    key: "T"
    value {
      type: DT_FLOAT
    }
  }
  attr {
    key: "_class"
    value {
      list {
        s: "loc:@train/resunit_transition_2/bottleneck_2/conv_2_1x1/weights"
      }
    }
  }
  attr {
    key: "_output_shapes"
    value {
      list {
        shape {
          dim {
            size: 1
          }
          dim {
            size: 1
          }
          dim {
            size: 32
          }
          dim {
            size: 128
          }
        }
      }
    }
  }
  attr {
    key: "use_locking"
    value {
      b: true
    }
  }
  attr {
    key: "validate_shape"
    value {
      b: true
    }
  }
}
node {
  name: "save/RestoreV2_228/tensor_names"
  op: "Const"
  device: "/device:CPU:0"
  attr {
    key: "_output_shapes"
    value {
      list {
        shape {
          dim {
            size: 1
          }
        }
      }
    }
  }
  attr {
    key: "dtype"
    value {
      type: DT_STRING
    }
  }
  attr {
    key: "value"
    value {
      tensor {
        dtype: DT_STRING
        tensor_shape {
          dim {
            size: 1
          }
        }
        string_val: "train/train/resunit_transition_2/shortcut/conv1x1/weights/Momentum"
      }
    }
  }
}
node {
  name: "save/RestoreV2_228/shape_and_slices"
  op: "Const"
  device: "/device:CPU:0"
  attr {
    key: "_output_shapes"
    value {
      list {
        shape {
          dim {
            size: 1
          }
        }
      }
    }
  }
  attr {
    key: "dtype"
    value {
      type: DT_STRING
    }
  }
  attr {
    key: "value"
    value {
      tensor {
        dtype: DT_STRING
        tensor_shape {
          dim {
            size: 1
          }
        }
        string_val: ""
      }
    }
  }
}
node {
  name: "save/RestoreV2_228"
  op: "RestoreV2"
  input: "save/Const"
  input: "save/RestoreV2_228/tensor_names"
  input: "save/RestoreV2_228/shape_and_slices"
  device: "/device:CPU:0"
  attr {
    key: "_output_shapes"
    value {
      list {
        shape {
          unknown_rank: true
        }
      }
    }
  }
  attr {
    key: "dtypes"
    value {
      list {
        type: DT_FLOAT
      }
    }
  }
}
node {
  name: "save/Assign_228"
  op: "Assign"
  input: "train/train/resunit_transition_2/shortcut/conv1x1/weights/Momentum"
  input: "save/RestoreV2_228"
  device: "/device:GPU:0"
  attr {
    key: "T"
    value {
      type: DT_FLOAT
    }
  }
  attr {
    key: "_class"
    value {
      list {
        s: "loc:@train/resunit_transition_2/shortcut/conv1x1/weights"
      }
    }
  }
  attr {
    key: "_output_shapes"
    value {
      list {
        shape {
          dim {
            size: 1
          }
          dim {
            size: 1
          }
          dim {
            size: 64
          }
          dim {
            size: 128
          }
        }
      }
    }
  }
  attr {
    key: "use_locking"
    value {
      b: true
    }
  }
  attr {
    key: "validate_shape"
    value {
      b: true
    }
  }
}
node {
  name: "save/RestoreV2_229/tensor_names"
  op: "Const"
  device: "/device:CPU:0"
  attr {
    key: "_output_shapes"
    value {
      list {
        shape {
          dim {
            size: 1
          }
        }
      }
    }
  }
  attr {
    key: "dtype"
    value {
      type: DT_STRING
    }
  }
  attr {
    key: "value"
    value {
      tensor {
        dtype: DT_STRING
        tensor_shape {
          dim {
            size: 1
          }
        }
        string_val: "train/train/resunit_transition_3/bottleneck_0/batch_norm_0/beta/Momentum"
      }
    }
  }
}
node {
  name: "save/RestoreV2_229/shape_and_slices"
  op: "Const"
  device: "/device:CPU:0"
  attr {
    key: "_output_shapes"
    value {
      list {
        shape {
          dim {
            size: 1
          }
        }
      }
    }
  }
  attr {
    key: "dtype"
    value {
      type: DT_STRING
    }
  }
  attr {
    key: "value"
    value {
      tensor {
        dtype: DT_STRING
        tensor_shape {
          dim {
            size: 1
          }
        }
        string_val: ""
      }
    }
  }
}
node {
  name: "save/RestoreV2_229"
  op: "RestoreV2"
  input: "save/Const"
  input: "save/RestoreV2_229/tensor_names"
  input: "save/RestoreV2_229/shape_and_slices"
  device: "/device:CPU:0"
  attr {
    key: "_output_shapes"
    value {
      list {
        shape {
          unknown_rank: true
        }
      }
    }
  }
  attr {
    key: "dtypes"
    value {
      list {
        type: DT_FLOAT
      }
    }
  }
}
node {
  name: "save/Assign_229"
  op: "Assign"
  input: "train/train/resunit_transition_3/bottleneck_0/batch_norm_0/beta/Momentum"
  input: "save/RestoreV2_229"
  device: "/device:GPU:0"
  attr {
    key: "T"
    value {
      type: DT_FLOAT
    }
  }
  attr {
    key: "_class"
    value {
      list {
        s: "loc:@train/resunit_transition_3/bottleneck_0/batch_norm_0/beta"
      }
    }
  }
  attr {
    key: "_output_shapes"
    value {
      list {
        shape {
          dim {
            size: 128
          }
        }
      }
    }
  }
  attr {
    key: "use_locking"
    value {
      b: true
    }
  }
  attr {
    key: "validate_shape"
    value {
      b: true
    }
  }
}
node {
  name: "save/RestoreV2_230/tensor_names"
  op: "Const"
  device: "/device:CPU:0"
  attr {
    key: "_output_shapes"
    value {
      list {
        shape {
          dim {
            size: 1
          }
        }
      }
    }
  }
  attr {
    key: "dtype"
    value {
      type: DT_STRING
    }
  }
  attr {
    key: "value"
    value {
      tensor {
        dtype: DT_STRING
        tensor_shape {
          dim {
            size: 1
          }
        }
        string_val: "train/train/resunit_transition_3/bottleneck_0/batch_norm_0/gamma/Momentum"
      }
    }
  }
}
node {
  name: "save/RestoreV2_230/shape_and_slices"
  op: "Const"
  device: "/device:CPU:0"
  attr {
    key: "_output_shapes"
    value {
      list {
        shape {
          dim {
            size: 1
          }
        }
      }
    }
  }
  attr {
    key: "dtype"
    value {
      type: DT_STRING
    }
  }
  attr {
    key: "value"
    value {
      tensor {
        dtype: DT_STRING
        tensor_shape {
          dim {
            size: 1
          }
        }
        string_val: ""
      }
    }
  }
}
node {
  name: "save/RestoreV2_230"
  op: "RestoreV2"
  input: "save/Const"
  input: "save/RestoreV2_230/tensor_names"
  input: "save/RestoreV2_230/shape_and_slices"
  device: "/device:CPU:0"
  attr {
    key: "_output_shapes"
    value {
      list {
        shape {
          unknown_rank: true
        }
      }
    }
  }
  attr {
    key: "dtypes"
    value {
      list {
        type: DT_FLOAT
      }
    }
  }
}
node {
  name: "save/Assign_230"
  op: "Assign"
  input: "train/train/resunit_transition_3/bottleneck_0/batch_norm_0/gamma/Momentum"
  input: "save/RestoreV2_230"
  device: "/device:GPU:0"
  attr {
    key: "T"
    value {
      type: DT_FLOAT
    }
  }
  attr {
    key: "_class"
    value {
      list {
        s: "loc:@train/resunit_transition_3/bottleneck_0/batch_norm_0/gamma"
      }
    }
  }
  attr {
    key: "_output_shapes"
    value {
      list {
        shape {
          dim {
            size: 128
          }
        }
      }
    }
  }
  attr {
    key: "use_locking"
    value {
      b: true
    }
  }
  attr {
    key: "validate_shape"
    value {
      b: true
    }
  }
}
node {
  name: "save/RestoreV2_231/tensor_names"
  op: "Const"
  device: "/device:CPU:0"
  attr {
    key: "_output_shapes"
    value {
      list {
        shape {
          dim {
            size: 1
          }
        }
      }
    }
  }
  attr {
    key: "dtype"
    value {
      type: DT_STRING
    }
  }
  attr {
    key: "value"
    value {
      tensor {
        dtype: DT_STRING
        tensor_shape {
          dim {
            size: 1
          }
        }
        string_val: "train/train/resunit_transition_3/bottleneck_0/conv_0_1x1/weights/Momentum"
      }
    }
  }
}
node {
  name: "save/RestoreV2_231/shape_and_slices"
  op: "Const"
  device: "/device:CPU:0"
  attr {
    key: "_output_shapes"
    value {
      list {
        shape {
          dim {
            size: 1
          }
        }
      }
    }
  }
  attr {
    key: "dtype"
    value {
      type: DT_STRING
    }
  }
  attr {
    key: "value"
    value {
      tensor {
        dtype: DT_STRING
        tensor_shape {
          dim {
            size: 1
          }
        }
        string_val: ""
      }
    }
  }
}
node {
  name: "save/RestoreV2_231"
  op: "RestoreV2"
  input: "save/Const"
  input: "save/RestoreV2_231/tensor_names"
  input: "save/RestoreV2_231/shape_and_slices"
  device: "/device:CPU:0"
  attr {
    key: "_output_shapes"
    value {
      list {
        shape {
          unknown_rank: true
        }
      }
    }
  }
  attr {
    key: "dtypes"
    value {
      list {
        type: DT_FLOAT
      }
    }
  }
}
node {
  name: "save/Assign_231"
  op: "Assign"
  input: "train/train/resunit_transition_3/bottleneck_0/conv_0_1x1/weights/Momentum"
  input: "save/RestoreV2_231"
  device: "/device:GPU:0"
  attr {
    key: "T"
    value {
      type: DT_FLOAT
    }
  }
  attr {
    key: "_class"
    value {
      list {
        s: "loc:@train/resunit_transition_3/bottleneck_0/conv_0_1x1/weights"
      }
    }
  }
  attr {
    key: "_output_shapes"
    value {
      list {
        shape {
          dim {
            size: 1
          }
          dim {
            size: 1
          }
          dim {
            size: 128
          }
          dim {
            size: 64
          }
        }
      }
    }
  }
  attr {
    key: "use_locking"
    value {
      b: true
    }
  }
  attr {
    key: "validate_shape"
    value {
      b: true
    }
  }
}
node {
  name: "save/RestoreV2_232/tensor_names"
  op: "Const"
  device: "/device:CPU:0"
  attr {
    key: "_output_shapes"
    value {
      list {
        shape {
          dim {
            size: 1
          }
        }
      }
    }
  }
  attr {
    key: "dtype"
    value {
      type: DT_STRING
    }
  }
  attr {
    key: "value"
    value {
      tensor {
        dtype: DT_STRING
        tensor_shape {
          dim {
            size: 1
          }
        }
        string_val: "train/train/resunit_transition_3/bottleneck_1/batch_norm_1/beta/Momentum"
      }
    }
  }
}
node {
  name: "save/RestoreV2_232/shape_and_slices"
  op: "Const"
  device: "/device:CPU:0"
  attr {
    key: "_output_shapes"
    value {
      list {
        shape {
          dim {
            size: 1
          }
        }
      }
    }
  }
  attr {
    key: "dtype"
    value {
      type: DT_STRING
    }
  }
  attr {
    key: "value"
    value {
      tensor {
        dtype: DT_STRING
        tensor_shape {
          dim {
            size: 1
          }
        }
        string_val: ""
      }
    }
  }
}
node {
  name: "save/RestoreV2_232"
  op: "RestoreV2"
  input: "save/Const"
  input: "save/RestoreV2_232/tensor_names"
  input: "save/RestoreV2_232/shape_and_slices"
  device: "/device:CPU:0"
  attr {
    key: "_output_shapes"
    value {
      list {
        shape {
          unknown_rank: true
        }
      }
    }
  }
  attr {
    key: "dtypes"
    value {
      list {
        type: DT_FLOAT
      }
    }
  }
}
node {
  name: "save/Assign_232"
  op: "Assign"
  input: "train/train/resunit_transition_3/bottleneck_1/batch_norm_1/beta/Momentum"
  input: "save/RestoreV2_232"
  device: "/device:GPU:0"
  attr {
    key: "T"
    value {
      type: DT_FLOAT
    }
  }
  attr {
    key: "_class"
    value {
      list {
        s: "loc:@train/resunit_transition_3/bottleneck_1/batch_norm_1/beta"
      }
    }
  }
  attr {
    key: "_output_shapes"
    value {
      list {
        shape {
          dim {
            size: 64
          }
        }
      }
    }
  }
  attr {
    key: "use_locking"
    value {
      b: true
    }
  }
  attr {
    key: "validate_shape"
    value {
      b: true
    }
  }
}
node {
  name: "save/RestoreV2_233/tensor_names"
  op: "Const"
  device: "/device:CPU:0"
  attr {
    key: "_output_shapes"
    value {
      list {
        shape {
          dim {
            size: 1
          }
        }
      }
    }
  }
  attr {
    key: "dtype"
    value {
      type: DT_STRING
    }
  }
  attr {
    key: "value"
    value {
      tensor {
        dtype: DT_STRING
        tensor_shape {
          dim {
            size: 1
          }
        }
        string_val: "train/train/resunit_transition_3/bottleneck_1/batch_norm_1/gamma/Momentum"
      }
    }
  }
}
node {
  name: "save/RestoreV2_233/shape_and_slices"
  op: "Const"
  device: "/device:CPU:0"
  attr {
    key: "_output_shapes"
    value {
      list {
        shape {
          dim {
            size: 1
          }
        }
      }
    }
  }
  attr {
    key: "dtype"
    value {
      type: DT_STRING
    }
  }
  attr {
    key: "value"
    value {
      tensor {
        dtype: DT_STRING
        tensor_shape {
          dim {
            size: 1
          }
        }
        string_val: ""
      }
    }
  }
}
node {
  name: "save/RestoreV2_233"
  op: "RestoreV2"
  input: "save/Const"
  input: "save/RestoreV2_233/tensor_names"
  input: "save/RestoreV2_233/shape_and_slices"
  device: "/device:CPU:0"
  attr {
    key: "_output_shapes"
    value {
      list {
        shape {
          unknown_rank: true
        }
      }
    }
  }
  attr {
    key: "dtypes"
    value {
      list {
        type: DT_FLOAT
      }
    }
  }
}
node {
  name: "save/Assign_233"
  op: "Assign"
  input: "train/train/resunit_transition_3/bottleneck_1/batch_norm_1/gamma/Momentum"
  input: "save/RestoreV2_233"
  device: "/device:GPU:0"
  attr {
    key: "T"
    value {
      type: DT_FLOAT
    }
  }
  attr {
    key: "_class"
    value {
      list {
        s: "loc:@train/resunit_transition_3/bottleneck_1/batch_norm_1/gamma"
      }
    }
  }
  attr {
    key: "_output_shapes"
    value {
      list {
        shape {
          dim {
            size: 64
          }
        }
      }
    }
  }
  attr {
    key: "use_locking"
    value {
      b: true
    }
  }
  attr {
    key: "validate_shape"
    value {
      b: true
    }
  }
}
node {
  name: "save/RestoreV2_234/tensor_names"
  op: "Const"
  device: "/device:CPU:0"
  attr {
    key: "_output_shapes"
    value {
      list {
        shape {
          dim {
            size: 1
          }
        }
      }
    }
  }
  attr {
    key: "dtype"
    value {
      type: DT_STRING
    }
  }
  attr {
    key: "value"
    value {
      tensor {
        dtype: DT_STRING
        tensor_shape {
          dim {
            size: 1
          }
        }
        string_val: "train/train/resunit_transition_3/bottleneck_1/conv_1_3x3/weights/Momentum"
      }
    }
  }
}
node {
  name: "save/RestoreV2_234/shape_and_slices"
  op: "Const"
  device: "/device:CPU:0"
  attr {
    key: "_output_shapes"
    value {
      list {
        shape {
          dim {
            size: 1
          }
        }
      }
    }
  }
  attr {
    key: "dtype"
    value {
      type: DT_STRING
    }
  }
  attr {
    key: "value"
    value {
      tensor {
        dtype: DT_STRING
        tensor_shape {
          dim {
            size: 1
          }
        }
        string_val: ""
      }
    }
  }
}
node {
  name: "save/RestoreV2_234"
  op: "RestoreV2"
  input: "save/Const"
  input: "save/RestoreV2_234/tensor_names"
  input: "save/RestoreV2_234/shape_and_slices"
  device: "/device:CPU:0"
  attr {
    key: "_output_shapes"
    value {
      list {
        shape {
          unknown_rank: true
        }
      }
    }
  }
  attr {
    key: "dtypes"
    value {
      list {
        type: DT_FLOAT
      }
    }
  }
}
node {
  name: "save/Assign_234"
  op: "Assign"
  input: "train/train/resunit_transition_3/bottleneck_1/conv_1_3x3/weights/Momentum"
  input: "save/RestoreV2_234"
  device: "/device:GPU:0"
  attr {
    key: "T"
    value {
      type: DT_FLOAT
    }
  }
  attr {
    key: "_class"
    value {
      list {
        s: "loc:@train/resunit_transition_3/bottleneck_1/conv_1_3x3/weights"
      }
    }
  }
  attr {
    key: "_output_shapes"
    value {
      list {
        shape {
          dim {
            size: 3
          }
          dim {
            size: 3
          }
          dim {
            size: 64
          }
          dim {
            size: 64
          }
        }
      }
    }
  }
  attr {
    key: "use_locking"
    value {
      b: true
    }
  }
  attr {
    key: "validate_shape"
    value {
      b: true
    }
  }
}
node {
  name: "save/RestoreV2_235/tensor_names"
  op: "Const"
  device: "/device:CPU:0"
  attr {
    key: "_output_shapes"
    value {
      list {
        shape {
          dim {
            size: 1
          }
        }
      }
    }
  }
  attr {
    key: "dtype"
    value {
      type: DT_STRING
    }
  }
  attr {
    key: "value"
    value {
      tensor {
        dtype: DT_STRING
        tensor_shape {
          dim {
            size: 1
          }
        }
        string_val: "train/train/resunit_transition_3/bottleneck_2/batch_norm_2/beta/Momentum"
      }
    }
  }
}
node {
  name: "save/RestoreV2_235/shape_and_slices"
  op: "Const"
  device: "/device:CPU:0"
  attr {
    key: "_output_shapes"
    value {
      list {
        shape {
          dim {
            size: 1
          }
        }
      }
    }
  }
  attr {
    key: "dtype"
    value {
      type: DT_STRING
    }
  }
  attr {
    key: "value"
    value {
      tensor {
        dtype: DT_STRING
        tensor_shape {
          dim {
            size: 1
          }
        }
        string_val: ""
      }
    }
  }
}
node {
  name: "save/RestoreV2_235"
  op: "RestoreV2"
  input: "save/Const"
  input: "save/RestoreV2_235/tensor_names"
  input: "save/RestoreV2_235/shape_and_slices"
  device: "/device:CPU:0"
  attr {
    key: "_output_shapes"
    value {
      list {
        shape {
          unknown_rank: true
        }
      }
    }
  }
  attr {
    key: "dtypes"
    value {
      list {
        type: DT_FLOAT
      }
    }
  }
}
node {
  name: "save/Assign_235"
  op: "Assign"
  input: "train/train/resunit_transition_3/bottleneck_2/batch_norm_2/beta/Momentum"
  input: "save/RestoreV2_235"
  device: "/device:GPU:0"
  attr {
    key: "T"
    value {
      type: DT_FLOAT
    }
  }
  attr {
    key: "_class"
    value {
      list {
        s: "loc:@train/resunit_transition_3/bottleneck_2/batch_norm_2/beta"
      }
    }
  }
  attr {
    key: "_output_shapes"
    value {
      list {
        shape {
          dim {
            size: 64
          }
        }
      }
    }
  }
  attr {
    key: "use_locking"
    value {
      b: true
    }
  }
  attr {
    key: "validate_shape"
    value {
      b: true
    }
  }
}
node {
  name: "save/RestoreV2_236/tensor_names"
  op: "Const"
  device: "/device:CPU:0"
  attr {
    key: "_output_shapes"
    value {
      list {
        shape {
          dim {
            size: 1
          }
        }
      }
    }
  }
  attr {
    key: "dtype"
    value {
      type: DT_STRING
    }
  }
  attr {
    key: "value"
    value {
      tensor {
        dtype: DT_STRING
        tensor_shape {
          dim {
            size: 1
          }
        }
        string_val: "train/train/resunit_transition_3/bottleneck_2/batch_norm_2/gamma/Momentum"
      }
    }
  }
}
node {
  name: "save/RestoreV2_236/shape_and_slices"
  op: "Const"
  device: "/device:CPU:0"
  attr {
    key: "_output_shapes"
    value {
      list {
        shape {
          dim {
            size: 1
          }
        }
      }
    }
  }
  attr {
    key: "dtype"
    value {
      type: DT_STRING
    }
  }
  attr {
    key: "value"
    value {
      tensor {
        dtype: DT_STRING
        tensor_shape {
          dim {
            size: 1
          }
        }
        string_val: ""
      }
    }
  }
}
node {
  name: "save/RestoreV2_236"
  op: "RestoreV2"
  input: "save/Const"
  input: "save/RestoreV2_236/tensor_names"
  input: "save/RestoreV2_236/shape_and_slices"
  device: "/device:CPU:0"
  attr {
    key: "_output_shapes"
    value {
      list {
        shape {
          unknown_rank: true
        }
      }
    }
  }
  attr {
    key: "dtypes"
    value {
      list {
        type: DT_FLOAT
      }
    }
  }
}
node {
  name: "save/Assign_236"
  op: "Assign"
  input: "train/train/resunit_transition_3/bottleneck_2/batch_norm_2/gamma/Momentum"
  input: "save/RestoreV2_236"
  device: "/device:GPU:0"
  attr {
    key: "T"
    value {
      type: DT_FLOAT
    }
  }
  attr {
    key: "_class"
    value {
      list {
        s: "loc:@train/resunit_transition_3/bottleneck_2/batch_norm_2/gamma"
      }
    }
  }
  attr {
    key: "_output_shapes"
    value {
      list {
        shape {
          dim {
            size: 64
          }
        }
      }
    }
  }
  attr {
    key: "use_locking"
    value {
      b: true
    }
  }
  attr {
    key: "validate_shape"
    value {
      b: true
    }
  }
}
node {
  name: "save/RestoreV2_237/tensor_names"
  op: "Const"
  device: "/device:CPU:0"
  attr {
    key: "_output_shapes"
    value {
      list {
        shape {
          dim {
            size: 1
          }
        }
      }
    }
  }
  attr {
    key: "dtype"
    value {
      type: DT_STRING
    }
  }
  attr {
    key: "value"
    value {
      tensor {
        dtype: DT_STRING
        tensor_shape {
          dim {
            size: 1
          }
        }
        string_val: "train/train/resunit_transition_3/bottleneck_2/conv_2_1x1/weights/Momentum"
      }
    }
  }
}
node {
  name: "save/RestoreV2_237/shape_and_slices"
  op: "Const"
  device: "/device:CPU:0"
  attr {
    key: "_output_shapes"
    value {
      list {
        shape {
          dim {
            size: 1
          }
        }
      }
    }
  }
  attr {
    key: "dtype"
    value {
      type: DT_STRING
    }
  }
  attr {
    key: "value"
    value {
      tensor {
        dtype: DT_STRING
        tensor_shape {
          dim {
            size: 1
          }
        }
        string_val: ""
      }
    }
  }
}
node {
  name: "save/RestoreV2_237"
  op: "RestoreV2"
  input: "save/Const"
  input: "save/RestoreV2_237/tensor_names"
  input: "save/RestoreV2_237/shape_and_slices"
  device: "/device:CPU:0"
  attr {
    key: "_output_shapes"
    value {
      list {
        shape {
          unknown_rank: true
        }
      }
    }
  }
  attr {
    key: "dtypes"
    value {
      list {
        type: DT_FLOAT
      }
    }
  }
}
node {
  name: "save/Assign_237"
  op: "Assign"
  input: "train/train/resunit_transition_3/bottleneck_2/conv_2_1x1/weights/Momentum"
  input: "save/RestoreV2_237"
  device: "/device:GPU:0"
  attr {
    key: "T"
    value {
      type: DT_FLOAT
    }
  }
  attr {
    key: "_class"
    value {
      list {
        s: "loc:@train/resunit_transition_3/bottleneck_2/conv_2_1x1/weights"
      }
    }
  }
  attr {
    key: "_output_shapes"
    value {
      list {
        shape {
          dim {
            size: 1
          }
          dim {
            size: 1
          }
          dim {
            size: 64
          }
          dim {
            size: 256
          }
        }
      }
    }
  }
  attr {
    key: "use_locking"
    value {
      b: true
    }
  }
  attr {
    key: "validate_shape"
    value {
      b: true
    }
  }
}
node {
  name: "save/RestoreV2_238/tensor_names"
  op: "Const"
  device: "/device:CPU:0"
  attr {
    key: "_output_shapes"
    value {
      list {
        shape {
          dim {
            size: 1
          }
        }
      }
    }
  }
  attr {
    key: "dtype"
    value {
      type: DT_STRING
    }
  }
  attr {
    key: "value"
    value {
      tensor {
        dtype: DT_STRING
        tensor_shape {
          dim {
            size: 1
          }
        }
        string_val: "train/train/resunit_transition_3/shortcut/conv1x1/weights/Momentum"
      }
    }
  }
}
node {
  name: "save/RestoreV2_238/shape_and_slices"
  op: "Const"
  device: "/device:CPU:0"
  attr {
    key: "_output_shapes"
    value {
      list {
        shape {
          dim {
            size: 1
          }
        }
      }
    }
  }
  attr {
    key: "dtype"
    value {
      type: DT_STRING
    }
  }
  attr {
    key: "value"
    value {
      tensor {
        dtype: DT_STRING
        tensor_shape {
          dim {
            size: 1
          }
        }
        string_val: ""
      }
    }
  }
}
node {
  name: "save/RestoreV2_238"
  op: "RestoreV2"
  input: "save/Const"
  input: "save/RestoreV2_238/tensor_names"
  input: "save/RestoreV2_238/shape_and_slices"
  device: "/device:CPU:0"
  attr {
    key: "_output_shapes"
    value {
      list {
        shape {
          unknown_rank: true
        }
      }
    }
  }
  attr {
    key: "dtypes"
    value {
      list {
        type: DT_FLOAT
      }
    }
  }
}
node {
  name: "save/Assign_238"
  op: "Assign"
  input: "train/train/resunit_transition_3/shortcut/conv1x1/weights/Momentum"
  input: "save/RestoreV2_238"
  device: "/device:GPU:0"
  attr {
    key: "T"
    value {
      type: DT_FLOAT
    }
  }
  attr {
    key: "_class"
    value {
      list {
        s: "loc:@train/resunit_transition_3/shortcut/conv1x1/weights"
      }
    }
  }
  attr {
    key: "_output_shapes"
    value {
      list {
        shape {
          dim {
            size: 1
          }
          dim {
            size: 1
          }
          dim {
            size: 128
          }
          dim {
            size: 256
          }
        }
      }
    }
  }
  attr {
    key: "use_locking"
    value {
      b: true
    }
  }
  attr {
    key: "validate_shape"
    value {
      b: true
    }
  }
}
node {
  name: "save/restore_shard"
  op: "NoOp"
  input: "^save/Assign"
  input: "^save/Assign_1"
  input: "^save/Assign_2"
  input: "^save/Assign_3"
  input: "^save/Assign_4"
  input: "^save/Assign_5"
  input: "^save/Assign_6"
  input: "^save/Assign_7"
  input: "^save/Assign_8"
  input: "^save/Assign_9"
  input: "^save/Assign_10"
  input: "^save/Assign_11"
  input: "^save/Assign_12"
  input: "^save/Assign_13"
  input: "^save/Assign_14"
  input: "^save/Assign_15"
  input: "^save/Assign_16"
  input: "^save/Assign_17"
  input: "^save/Assign_18"
  input: "^save/Assign_19"
  input: "^save/Assign_20"
  input: "^save/Assign_21"
  input: "^save/Assign_22"
  input: "^save/Assign_23"
  input: "^save/Assign_24"
  input: "^save/Assign_25"
  input: "^save/Assign_26"
  input: "^save/Assign_27"
  input: "^save/Assign_28"
  input: "^save/Assign_29"
  input: "^save/Assign_30"
  input: "^save/Assign_31"
  input: "^save/Assign_32"
  input: "^save/Assign_33"
  input: "^save/Assign_34"
  input: "^save/Assign_35"
  input: "^save/Assign_36"
  input: "^save/Assign_37"
  input: "^save/Assign_38"
  input: "^save/Assign_39"
  input: "^save/Assign_40"
  input: "^save/Assign_41"
  input: "^save/Assign_42"
  input: "^save/Assign_43"
  input: "^save/Assign_44"
  input: "^save/Assign_45"
  input: "^save/Assign_46"
  input: "^save/Assign_47"
  input: "^save/Assign_48"
  input: "^save/Assign_49"
  input: "^save/Assign_50"
  input: "^save/Assign_51"
  input: "^save/Assign_52"
  input: "^save/Assign_53"
  input: "^save/Assign_54"
  input: "^save/Assign_55"
  input: "^save/Assign_56"
  input: "^save/Assign_57"
  input: "^save/Assign_58"
  input: "^save/Assign_59"
  input: "^save/Assign_60"
  input: "^save/Assign_61"
  input: "^save/Assign_62"
  input: "^save/Assign_63"
  input: "^save/Assign_64"
  input: "^save/Assign_65"
  input: "^save/Assign_66"
  input: "^save/Assign_67"
  input: "^save/Assign_68"
  input: "^save/Assign_69"
  input: "^save/Assign_70"
  input: "^save/Assign_71"
  input: "^save/Assign_72"
  input: "^save/Assign_73"
  input: "^save/Assign_74"
  input: "^save/Assign_75"
  input: "^save/Assign_76"
  input: "^save/Assign_77"
  input: "^save/Assign_78"
  input: "^save/Assign_79"
  input: "^save/Assign_80"
  input: "^save/Assign_81"
  input: "^save/Assign_82"
  input: "^save/Assign_83"
  input: "^save/Assign_84"
  input: "^save/Assign_85"
  input: "^save/Assign_86"
  input: "^save/Assign_87"
  input: "^save/Assign_88"
  input: "^save/Assign_89"
  input: "^save/Assign_90"
  input: "^save/Assign_91"
  input: "^save/Assign_92"
  input: "^save/Assign_93"
  input: "^save/Assign_94"
  input: "^save/Assign_95"
  input: "^save/Assign_96"
  input: "^save/Assign_97"
  input: "^save/Assign_98"
  input: "^save/Assign_99"
  input: "^save/Assign_100"
  input: "^save/Assign_101"
  input: "^save/Assign_102"
  input: "^save/Assign_103"
  input: "^save/Assign_104"
  input: "^save/Assign_105"
  input: "^save/Assign_106"
  input: "^save/Assign_107"
  input: "^save/Assign_108"
  input: "^save/Assign_109"
  input: "^save/Assign_110"
  input: "^save/Assign_111"
  input: "^save/Assign_112"
  input: "^save/Assign_113"
  input: "^save/Assign_114"
  input: "^save/Assign_115"
  input: "^save/Assign_116"
  input: "^save/Assign_117"
  input: "^save/Assign_118"
  input: "^save/Assign_119"
  input: "^save/Assign_120"
  input: "^save/Assign_121"
  input: "^save/Assign_122"
  input: "^save/Assign_123"
  input: "^save/Assign_124"
  input: "^save/Assign_125"
  input: "^save/Assign_126"
  input: "^save/Assign_127"
  input: "^save/Assign_128"
  input: "^save/Assign_129"
  input: "^save/Assign_130"
  input: "^save/Assign_131"
  input: "^save/Assign_132"
  input: "^save/Assign_133"
  input: "^save/Assign_134"
  input: "^save/Assign_135"
  input: "^save/Assign_136"
  input: "^save/Assign_137"
  input: "^save/Assign_138"
  input: "^save/Assign_139"
  input: "^save/Assign_140"
  input: "^save/Assign_141"
  input: "^save/Assign_142"
  input: "^save/Assign_143"
  input: "^save/Assign_144"
  input: "^save/Assign_145"
  input: "^save/Assign_146"
  input: "^save/Assign_147"
  input: "^save/Assign_148"
  input: "^save/Assign_149"
  input: "^save/Assign_150"
  input: "^save/Assign_151"
  input: "^save/Assign_152"
  input: "^save/Assign_153"
  input: "^save/Assign_154"
  input: "^save/Assign_155"
  input: "^save/Assign_156"
  input: "^save/Assign_157"
  input: "^save/Assign_158"
  input: "^save/Assign_159"
  input: "^save/Assign_160"
  input: "^save/Assign_161"
  input: "^save/Assign_162"
  input: "^save/Assign_163"
  input: "^save/Assign_164"
  input: "^save/Assign_165"
  input: "^save/Assign_166"
  input: "^save/Assign_167"
  input: "^save/Assign_168"
  input: "^save/Assign_169"
  input: "^save/Assign_170"
  input: "^save/Assign_171"
  input: "^save/Assign_172"
  input: "^save/Assign_173"
  input: "^save/Assign_174"
  input: "^save/Assign_175"
  input: "^save/Assign_176"
  input: "^save/Assign_177"
  input: "^save/Assign_178"
  input: "^save/Assign_179"
  input: "^save/Assign_180"
  input: "^save/Assign_181"
  input: "^save/Assign_182"
  input: "^save/Assign_183"
  input: "^save/Assign_184"
  input: "^save/Assign_185"
  input: "^save/Assign_186"
  input: "^save/Assign_187"
  input: "^save/Assign_188"
  input: "^save/Assign_189"
  input: "^save/Assign_190"
  input: "^save/Assign_191"
  input: "^save/Assign_192"
  input: "^save/Assign_193"
  input: "^save/Assign_194"
  input: "^save/Assign_195"
  input: "^save/Assign_196"
  input: "^save/Assign_197"
  input: "^save/Assign_198"
  input: "^save/Assign_199"
  input: "^save/Assign_200"
  input: "^save/Assign_201"
  input: "^save/Assign_202"
  input: "^save/Assign_203"
  input: "^save/Assign_204"
  input: "^save/Assign_205"
  input: "^save/Assign_206"
  input: "^save/Assign_207"
  input: "^save/Assign_208"
  input: "^save/Assign_209"
  input: "^save/Assign_210"
  input: "^save/Assign_211"
  input: "^save/Assign_212"
  input: "^save/Assign_213"
  input: "^save/Assign_214"
  input: "^save/Assign_215"
  input: "^save/Assign_216"
  input: "^save/Assign_217"
  input: "^save/Assign_218"
  input: "^save/Assign_219"
  input: "^save/Assign_220"
  input: "^save/Assign_221"
  input: "^save/Assign_222"
  input: "^save/Assign_223"
  input: "^save/Assign_224"
  input: "^save/Assign_225"
  input: "^save/Assign_226"
  input: "^save/Assign_227"
  input: "^save/Assign_228"
  input: "^save/Assign_229"
  input: "^save/Assign_230"
  input: "^save/Assign_231"
  input: "^save/Assign_232"
  input: "^save/Assign_233"
  input: "^save/Assign_234"
  input: "^save/Assign_235"
  input: "^save/Assign_236"
  input: "^save/Assign_237"
  input: "^save/Assign_238"
  device: "/device:GPU:0"
}
node {
  name: "save/restore_all"
  op: "NoOp"
  input: "^save/restore_shard"
  device: "/device:GPU:0"
}
versions {
  producer: 17
}
